{"format": "graph-model", "generatedBy": "2.15.0", "convertedBy": "TensorFlow.js Converter v4.10.0", "signature": {"outputs": {"PartitionedCall": {"name": "PartitionedCall"}}}, "modelTopology": {"node": [{"name": "Const", "op": "Const", "attr": {"value": {"tensor": {"dtype": "DT_FLOAT", "tensorShape": {"dim": [{"size": "32"}, {"size": "1"}, {"size": "3"}, {"size": "3"}]}}}, "dtype": {"type": "DT_FLOAT"}}}, {"name": "Const_1", "op": "Const", "attr": {"dtype": {"type": "DT_FLOAT"}, "value": {"tensor": {"dtype": "DT_FLOAT", "tensorShape": {"dim": [{"size": "32"}]}}}}}, {"name": "Const_2", "op": "Const", "attr": {"value": {"tensor": {"dtype": "DT_FLOAT", "tensorShape": {"dim": [{"size": "32"}, {"size": "1"}, {"size": "3"}, {"size": "3"}]}}}, "dtype": {"type": "DT_FLOAT"}}}, {"name": "Const_3", "op": "Const", "attr": {"value": {"tensor": {"dtype": "DT_FLOAT", "tensorShape": {"dim": [{"size": "32"}]}}}, "dtype": {"type": "DT_FLOAT"}}}, {"name": "Const_4", "op": "Const", "attr": {"dtype": {"type": "DT_FLOAT"}, "value": {"tensor": {"dtype": "DT_FLOAT", "tensorShape": {"dim": [{"size": "8"}, {"size": "32"}, {"size": "1"}, {"size": "1"}]}}}}}, {"name": "Const_5", "op": "Const", "attr": {"value": {"tensor": {"dtype": "DT_FLOAT", "tensorShape": {"dim": [{"size": "8"}]}}}, "dtype": {"type": "DT_FLOAT"}}}, {"name": "Const_6", "op": "Const", "attr": {"value": {"tensor": {"dtype": "DT_FLOAT", "tensorShape": {"dim": [{"size": "32"}, {"size": "8"}, {"size": "1"}, {"size": "1"}]}}}, "dtype": {"type": "DT_FLOAT"}}}, {"name": "Const_7", "op": "Const", "attr": {"value": {"tensor": {"dtype": "DT_FLOAT", "tensorShape": {"dim": [{"size": "32"}]}}}, "dtype": {"type": "DT_FLOAT"}}}, {"name": "Const_8", "op": "Const", "attr": {"value": {"tensor": {"dtype": "DT_FLOAT", "tensorShape": {"dim": [{"size": "16"}, {"size": "32"}, {"size": "1"}, {"size": "1"}]}}}, "dtype": {"type": "DT_FLOAT"}}}, {"name": "Const_9", "op": "Const", "attr": {"value": {"tensor": {"dtype": "DT_FLOAT", "tensorShape": {"dim": [{"size": "16"}]}}}, "dtype": {"type": "DT_FLOAT"}}}, {"name": "Const_10", "op": "Const", "attr": {"dtype": {"type": "DT_FLOAT"}, "value": {"tensor": {"dtype": "DT_FLOAT", "tensorShape": {"dim": [{"size": "96"}, {"size": "16"}, {"size": "1"}, {"size": "1"}]}}}}}, {"name": "Const_11", "op": "Const", "attr": {"dtype": {"type": "DT_FLOAT"}, "value": {"tensor": {"dtype": "DT_FLOAT", "tensorShape": {"dim": [{"size": "96"}]}}}}}, {"name": "Const_12", "op": "Const", "attr": {"value": {"tensor": {"dtype": "DT_FLOAT", "tensorShape": {"dim": [{"size": "96"}, {"size": "1"}, {"size": "3"}, {"size": "3"}]}}}, "dtype": {"type": "DT_FLOAT"}}}, {"name": "Const_13", "op": "Const", "attr": {"value": {"tensor": {"dtype": "DT_FLOAT", "tensorShape": {"dim": [{"size": "96"}]}}}, "dtype": {"type": "DT_FLOAT"}}}, {"name": "Const_14", "op": "Const", "attr": {"value": {"tensor": {"dtype": "DT_FLOAT", "tensorShape": {"dim": [{"size": "4"}, {"size": "96"}, {"size": "1"}, {"size": "1"}]}}}, "dtype": {"type": "DT_FLOAT"}}}, {"name": "Const_15", "op": "Const", "attr": {"value": {"tensor": {"dtype": "DT_FLOAT", "tensorShape": {"dim": [{"size": "4"}]}}}, "dtype": {"type": "DT_FLOAT"}}}, {"name": "Const_16", "op": "Const", "attr": {"dtype": {"type": "DT_FLOAT"}, "value": {"tensor": {"dtype": "DT_FLOAT", "tensorShape": {"dim": [{"size": "96"}, {"size": "4"}, {"size": "1"}, {"size": "1"}]}}}}}, {"name": "Const_17", "op": "Const", "attr": {"dtype": {"type": "DT_FLOAT"}, "value": {"tensor": {"dtype": "DT_FLOAT", "tensorShape": {"dim": [{"size": "96"}]}}}}}, {"name": "Const_18", "op": "Const", "attr": {"dtype": {"type": "DT_FLOAT"}, "value": {"tensor": {"dtype": "DT_FLOAT", "tensorShape": {"dim": [{"size": "24"}, {"size": "96"}, {"size": "1"}, {"size": "1"}]}}}}}, {"name": "Const_19", "op": "Const", "attr": {"dtype": {"type": "DT_FLOAT"}, "value": {"tensor": {"dtype": "DT_FLOAT", "tensorShape": {"dim": [{"size": "24"}]}}}}}, {"name": "Const_20", "op": "Const", "attr": {"dtype": {"type": "DT_FLOAT"}, "value": {"tensor": {"dtype": "DT_FLOAT", "tensorShape": {"dim": [{"size": "144"}, {"size": "24"}, {"size": "1"}, {"size": "1"}]}}}}}, {"name": "Const_21", "op": "Const", "attr": {"value": {"tensor": {"dtype": "DT_FLOAT", "tensorShape": {"dim": [{"size": "144"}]}}}, "dtype": {"type": "DT_FLOAT"}}}, {"name": "Const_22", "op": "Const", "attr": {"dtype": {"type": "DT_FLOAT"}, "value": {"tensor": {"dtype": "DT_FLOAT", "tensorShape": {"dim": [{"size": "144"}, {"size": "1"}, {"size": "3"}, {"size": "3"}]}}}}}, {"name": "Const_23", "op": "Const", "attr": {"value": {"tensor": {"dtype": "DT_FLOAT", "tensorShape": {"dim": [{"size": "144"}]}}}, "dtype": {"type": "DT_FLOAT"}}}, {"name": "Const_24", "op": "Const", "attr": {"dtype": {"type": "DT_FLOAT"}, "value": {"tensor": {"dtype": "DT_FLOAT", "tensorShape": {"dim": [{"size": "6"}, {"size": "144"}, {"size": "1"}, {"size": "1"}]}}}}}, {"name": "Const_25", "op": "Const", "attr": {"dtype": {"type": "DT_FLOAT"}, "value": {"tensor": {"dtype": "DT_FLOAT", "tensorShape": {"dim": [{"size": "6"}]}}}}}, {"name": "Const_26", "op": "Const", "attr": {"dtype": {"type": "DT_FLOAT"}, "value": {"tensor": {"dtype": "DT_FLOAT", "tensorShape": {"dim": [{"size": "144"}, {"size": "6"}, {"size": "1"}, {"size": "1"}]}}}}}, {"name": "Const_27", "op": "Const", "attr": {"value": {"tensor": {"dtype": "DT_FLOAT", "tensorShape": {"dim": [{"size": "144"}]}}}, "dtype": {"type": "DT_FLOAT"}}}, {"name": "Const_28", "op": "Const", "attr": {"value": {"tensor": {"dtype": "DT_FLOAT", "tensorShape": {"dim": [{"size": "24"}, {"size": "144"}, {"size": "1"}, {"size": "1"}]}}}, "dtype": {"type": "DT_FLOAT"}}}, {"name": "Const_29", "op": "Const", "attr": {"dtype": {"type": "DT_FLOAT"}, "value": {"tensor": {"dtype": "DT_FLOAT", "tensorShape": {"dim": [{"size": "24"}]}}}}}, {"name": "Const_30", "op": "Const", "attr": {"value": {"tensor": {"dtype": "DT_FLOAT", "tensorShape": {"dim": [{"size": "144"}, {"size": "24"}, {"size": "1"}, {"size": "1"}]}}}, "dtype": {"type": "DT_FLOAT"}}}, {"name": "Const_31", "op": "Const", "attr": {"value": {"tensor": {"dtype": "DT_FLOAT", "tensorShape": {"dim": [{"size": "144"}]}}}, "dtype": {"type": "DT_FLOAT"}}}, {"name": "Const_32", "op": "Const", "attr": {"dtype": {"type": "DT_FLOAT"}, "value": {"tensor": {"dtype": "DT_FLOAT", "tensorShape": {"dim": [{"size": "144"}, {"size": "1"}, {"size": "5"}, {"size": "5"}]}}}}}, {"name": "Const_33", "op": "Const", "attr": {"dtype": {"type": "DT_FLOAT"}, "value": {"tensor": {"dtype": "DT_FLOAT", "tensorShape": {"dim": [{"size": "144"}]}}}}}, {"name": "Const_34", "op": "Const", "attr": {"value": {"tensor": {"dtype": "DT_FLOAT", "tensorShape": {"dim": [{"size": "6"}, {"size": "144"}, {"size": "1"}, {"size": "1"}]}}}, "dtype": {"type": "DT_FLOAT"}}}, {"name": "Const_35", "op": "Const", "attr": {"dtype": {"type": "DT_FLOAT"}, "value": {"tensor": {"dtype": "DT_FLOAT", "tensorShape": {"dim": [{"size": "6"}]}}}}}, {"name": "Const_36", "op": "Const", "attr": {"value": {"tensor": {"dtype": "DT_FLOAT", "tensorShape": {"dim": [{"size": "144"}, {"size": "6"}, {"size": "1"}, {"size": "1"}]}}}, "dtype": {"type": "DT_FLOAT"}}}, {"name": "Const_37", "op": "Const", "attr": {"dtype": {"type": "DT_FLOAT"}, "value": {"tensor": {"dtype": "DT_FLOAT", "tensorShape": {"dim": [{"size": "144"}]}}}}}, {"name": "Const_38", "op": "Const", "attr": {"dtype": {"type": "DT_FLOAT"}, "value": {"tensor": {"dtype": "DT_FLOAT", "tensorShape": {"dim": [{"size": "40"}, {"size": "144"}, {"size": "1"}, {"size": "1"}]}}}}}, {"name": "Const_39", "op": "Const", "attr": {"value": {"tensor": {"dtype": "DT_FLOAT", "tensorShape": {"dim": [{"size": "40"}]}}}, "dtype": {"type": "DT_FLOAT"}}}, {"name": "Const_40", "op": "Const", "attr": {"value": {"tensor": {"dtype": "DT_FLOAT", "tensorShape": {"dim": [{"size": "240"}, {"size": "40"}, {"size": "1"}, {"size": "1"}]}}}, "dtype": {"type": "DT_FLOAT"}}}, {"name": "Const_41", "op": "Const", "attr": {"dtype": {"type": "DT_FLOAT"}, "value": {"tensor": {"dtype": "DT_FLOAT", "tensorShape": {"dim": [{"size": "240"}]}}}}}, {"name": "Const_42", "op": "Const", "attr": {"dtype": {"type": "DT_FLOAT"}, "value": {"tensor": {"dtype": "DT_FLOAT", "tensorShape": {"dim": [{"size": "240"}, {"size": "1"}, {"size": "5"}, {"size": "5"}]}}}}}, {"name": "Const_43", "op": "Const", "attr": {"dtype": {"type": "DT_FLOAT"}, "value": {"tensor": {"dtype": "DT_FLOAT", "tensorShape": {"dim": [{"size": "240"}]}}}}}, {"name": "Const_44", "op": "Const", "attr": {"value": {"tensor": {"dtype": "DT_FLOAT", "tensorShape": {"dim": [{"size": "10"}, {"size": "240"}, {"size": "1"}, {"size": "1"}]}}}, "dtype": {"type": "DT_FLOAT"}}}, {"name": "Const_45", "op": "Const", "attr": {"dtype": {"type": "DT_FLOAT"}, "value": {"tensor": {"dtype": "DT_FLOAT", "tensorShape": {"dim": [{"size": "10"}]}}}}}, {"name": "Const_46", "op": "Const", "attr": {"dtype": {"type": "DT_FLOAT"}, "value": {"tensor": {"dtype": "DT_FLOAT", "tensorShape": {"dim": [{"size": "240"}, {"size": "10"}, {"size": "1"}, {"size": "1"}]}}}}}, {"name": "Const_47", "op": "Const", "attr": {"dtype": {"type": "DT_FLOAT"}, "value": {"tensor": {"dtype": "DT_FLOAT", "tensorShape": {"dim": [{"size": "240"}]}}}}}, {"name": "Const_48", "op": "Const", "attr": {"value": {"tensor": {"dtype": "DT_FLOAT", "tensorShape": {"dim": [{"size": "40"}, {"size": "240"}, {"size": "1"}, {"size": "1"}]}}}, "dtype": {"type": "DT_FLOAT"}}}, {"name": "Const_49", "op": "Const", "attr": {"value": {"tensor": {"dtype": "DT_FLOAT", "tensorShape": {"dim": [{"size": "40"}]}}}, "dtype": {"type": "DT_FLOAT"}}}, {"name": "Const_50", "op": "Const", "attr": {"dtype": {"type": "DT_FLOAT"}, "value": {"tensor": {"dtype": "DT_FLOAT", "tensorShape": {"dim": [{"size": "240"}, {"size": "40"}, {"size": "1"}, {"size": "1"}]}}}}}, {"name": "Const_51", "op": "Const", "attr": {"value": {"tensor": {"dtype": "DT_FLOAT", "tensorShape": {"dim": [{"size": "240"}]}}}, "dtype": {"type": "DT_FLOAT"}}}, {"name": "Const_52", "op": "Const", "attr": {"dtype": {"type": "DT_FLOAT"}, "value": {"tensor": {"dtype": "DT_FLOAT", "tensorShape": {"dim": [{"size": "240"}, {"size": "1"}, {"size": "3"}, {"size": "3"}]}}}}}, {"name": "Const_53", "op": "Const", "attr": {"dtype": {"type": "DT_FLOAT"}, "value": {"tensor": {"dtype": "DT_FLOAT", "tensorShape": {"dim": [{"size": "240"}]}}}}}, {"name": "Const_54", "op": "Const", "attr": {"value": {"tensor": {"dtype": "DT_FLOAT", "tensorShape": {"dim": [{"size": "10"}, {"size": "240"}, {"size": "1"}, {"size": "1"}]}}}, "dtype": {"type": "DT_FLOAT"}}}, {"name": "Const_55", "op": "Const", "attr": {"dtype": {"type": "DT_FLOAT"}, "value": {"tensor": {"dtype": "DT_FLOAT", "tensorShape": {"dim": [{"size": "10"}]}}}}}, {"name": "Const_56", "op": "Const", "attr": {"value": {"tensor": {"dtype": "DT_FLOAT", "tensorShape": {"dim": [{"size": "240"}, {"size": "10"}, {"size": "1"}, {"size": "1"}]}}}, "dtype": {"type": "DT_FLOAT"}}}, {"name": "Const_57", "op": "Const", "attr": {"value": {"tensor": {"dtype": "DT_FLOAT", "tensorShape": {"dim": [{"size": "240"}]}}}, "dtype": {"type": "DT_FLOAT"}}}, {"name": "Const_58", "op": "Const", "attr": {"value": {"tensor": {"dtype": "DT_FLOAT", "tensorShape": {"dim": [{"size": "80"}, {"size": "240"}, {"size": "1"}, {"size": "1"}]}}}, "dtype": {"type": "DT_FLOAT"}}}, {"name": "Const_59", "op": "Const", "attr": {"dtype": {"type": "DT_FLOAT"}, "value": {"tensor": {"dtype": "DT_FLOAT", "tensorShape": {"dim": [{"size": "80"}]}}}}}, {"name": "Const_60", "op": "Const", "attr": {"value": {"tensor": {"dtype": "DT_FLOAT", "tensorShape": {"dim": [{"size": "480"}, {"size": "80"}, {"size": "1"}, {"size": "1"}]}}}, "dtype": {"type": "DT_FLOAT"}}}, {"name": "Const_61", "op": "Const", "attr": {"dtype": {"type": "DT_FLOAT"}, "value": {"tensor": {"dtype": "DT_FLOAT", "tensorShape": {"dim": [{"size": "480"}]}}}}}, {"name": "Const_62", "op": "Const", "attr": {"dtype": {"type": "DT_FLOAT"}, "value": {"tensor": {"dtype": "DT_FLOAT", "tensorShape": {"dim": [{"size": "480"}, {"size": "1"}, {"size": "3"}, {"size": "3"}]}}}}}, {"name": "Const_63", "op": "Const", "attr": {"value": {"tensor": {"dtype": "DT_FLOAT", "tensorShape": {"dim": [{"size": "480"}]}}}, "dtype": {"type": "DT_FLOAT"}}}, {"name": "Const_64", "op": "Const", "attr": {"dtype": {"type": "DT_FLOAT"}, "value": {"tensor": {"dtype": "DT_FLOAT", "tensorShape": {"dim": [{"size": "20"}, {"size": "480"}, {"size": "1"}, {"size": "1"}]}}}}}, {"name": "Const_65", "op": "Const", "attr": {"value": {"tensor": {"dtype": "DT_FLOAT", "tensorShape": {"dim": [{"size": "20"}]}}}, "dtype": {"type": "DT_FLOAT"}}}, {"name": "Const_66", "op": "Const", "attr": {"dtype": {"type": "DT_FLOAT"}, "value": {"tensor": {"dtype": "DT_FLOAT", "tensorShape": {"dim": [{"size": "480"}, {"size": "20"}, {"size": "1"}, {"size": "1"}]}}}}}, {"name": "Const_67", "op": "Const", "attr": {"value": {"tensor": {"dtype": "DT_FLOAT", "tensorShape": {"dim": [{"size": "480"}]}}}, "dtype": {"type": "DT_FLOAT"}}}, {"name": "Const_68", "op": "Const", "attr": {"dtype": {"type": "DT_FLOAT"}, "value": {"tensor": {"dtype": "DT_FLOAT", "tensorShape": {"dim": [{"size": "80"}, {"size": "480"}, {"size": "1"}, {"size": "1"}]}}}}}, {"name": "Const_69", "op": "Const", "attr": {"dtype": {"type": "DT_FLOAT"}, "value": {"tensor": {"dtype": "DT_FLOAT", "tensorShape": {"dim": [{"size": "80"}]}}}}}, {"name": "Const_70", "op": "Const", "attr": {"dtype": {"type": "DT_FLOAT"}, "value": {"tensor": {"dtype": "DT_FLOAT", "tensorShape": {"dim": [{"size": "480"}, {"size": "80"}, {"size": "1"}, {"size": "1"}]}}}}}, {"name": "Const_71", "op": "Const", "attr": {"dtype": {"type": "DT_FLOAT"}, "value": {"tensor": {"dtype": "DT_FLOAT", "tensorShape": {"dim": [{"size": "480"}]}}}}}, {"name": "Const_72", "op": "Const", "attr": {"value": {"tensor": {"dtype": "DT_FLOAT", "tensorShape": {"dim": [{"size": "480"}, {"size": "1"}, {"size": "3"}, {"size": "3"}]}}}, "dtype": {"type": "DT_FLOAT"}}}, {"name": "Const_73", "op": "Const", "attr": {"dtype": {"type": "DT_FLOAT"}, "value": {"tensor": {"dtype": "DT_FLOAT", "tensorShape": {"dim": [{"size": "480"}]}}}}}, {"name": "Const_74", "op": "Const", "attr": {"value": {"tensor": {"dtype": "DT_FLOAT", "tensorShape": {"dim": [{"size": "20"}, {"size": "480"}, {"size": "1"}, {"size": "1"}]}}}, "dtype": {"type": "DT_FLOAT"}}}, {"name": "Const_75", "op": "Const", "attr": {"dtype": {"type": "DT_FLOAT"}, "value": {"tensor": {"dtype": "DT_FLOAT", "tensorShape": {"dim": [{"size": "20"}]}}}}}, {"name": "Const_76", "op": "Const", "attr": {"dtype": {"type": "DT_FLOAT"}, "value": {"tensor": {"dtype": "DT_FLOAT", "tensorShape": {"dim": [{"size": "480"}, {"size": "20"}, {"size": "1"}, {"size": "1"}]}}}}}, {"name": "Const_77", "op": "Const", "attr": {"dtype": {"type": "DT_FLOAT"}, "value": {"tensor": {"dtype": "DT_FLOAT", "tensorShape": {"dim": [{"size": "480"}]}}}}}, {"name": "Const_78", "op": "Const", "attr": {"value": {"tensor": {"dtype": "DT_FLOAT", "tensorShape": {"dim": [{"size": "80"}, {"size": "480"}, {"size": "1"}, {"size": "1"}]}}}, "dtype": {"type": "DT_FLOAT"}}}, {"name": "Const_79", "op": "Const", "attr": {"value": {"tensor": {"dtype": "DT_FLOAT", "tensorShape": {"dim": [{"size": "80"}]}}}, "dtype": {"type": "DT_FLOAT"}}}, {"name": "Const_80", "op": "Const", "attr": {"value": {"tensor": {"dtype": "DT_FLOAT", "tensorShape": {"dim": [{"size": "480"}, {"size": "80"}, {"size": "1"}, {"size": "1"}]}}}, "dtype": {"type": "DT_FLOAT"}}}, {"name": "Const_81", "op": "Const", "attr": {"value": {"tensor": {"dtype": "DT_FLOAT", "tensorShape": {"dim": [{"size": "480"}]}}}, "dtype": {"type": "DT_FLOAT"}}}, {"name": "Const_82", "op": "Const", "attr": {"value": {"tensor": {"dtype": "DT_FLOAT", "tensorShape": {"dim": [{"size": "480"}, {"size": "1"}, {"size": "5"}, {"size": "5"}]}}}, "dtype": {"type": "DT_FLOAT"}}}, {"name": "Const_83", "op": "Const", "attr": {"value": {"tensor": {"dtype": "DT_FLOAT", "tensorShape": {"dim": [{"size": "480"}]}}}, "dtype": {"type": "DT_FLOAT"}}}, {"name": "Const_84", "op": "Const", "attr": {"dtype": {"type": "DT_FLOAT"}, "value": {"tensor": {"dtype": "DT_FLOAT", "tensorShape": {"dim": [{"size": "20"}, {"size": "480"}, {"size": "1"}, {"size": "1"}]}}}}}, {"name": "Const_85", "op": "Const", "attr": {"dtype": {"type": "DT_FLOAT"}, "value": {"tensor": {"dtype": "DT_FLOAT", "tensorShape": {"dim": [{"size": "20"}]}}}}}, {"name": "Const_86", "op": "Const", "attr": {"value": {"tensor": {"dtype": "DT_FLOAT", "tensorShape": {"dim": [{"size": "480"}, {"size": "20"}, {"size": "1"}, {"size": "1"}]}}}, "dtype": {"type": "DT_FLOAT"}}}, {"name": "Const_87", "op": "Const", "attr": {"dtype": {"type": "DT_FLOAT"}, "value": {"tensor": {"dtype": "DT_FLOAT", "tensorShape": {"dim": [{"size": "480"}]}}}}}, {"name": "Const_88", "op": "Const", "attr": {"value": {"tensor": {"dtype": "DT_FLOAT", "tensorShape": {"dim": [{"size": "112"}, {"size": "480"}, {"size": "1"}, {"size": "1"}]}}}, "dtype": {"type": "DT_FLOAT"}}}, {"name": "Const_89", "op": "Const", "attr": {"dtype": {"type": "DT_FLOAT"}, "value": {"tensor": {"dtype": "DT_FLOAT", "tensorShape": {"dim": [{"size": "112"}]}}}}}, {"name": "Const_90", "op": "Const", "attr": {"value": {"tensor": {"dtype": "DT_FLOAT", "tensorShape": {"dim": [{"size": "672"}, {"size": "112"}, {"size": "1"}, {"size": "1"}]}}}, "dtype": {"type": "DT_FLOAT"}}}, {"name": "Const_91", "op": "Const", "attr": {"dtype": {"type": "DT_FLOAT"}, "value": {"tensor": {"dtype": "DT_FLOAT", "tensorShape": {"dim": [{"size": "672"}]}}}}}, {"name": "Const_92", "op": "Const", "attr": {"value": {"tensor": {"dtype": "DT_FLOAT", "tensorShape": {"dim": [{"size": "672"}, {"size": "1"}, {"size": "5"}, {"size": "5"}]}}}, "dtype": {"type": "DT_FLOAT"}}}, {"name": "Const_93", "op": "Const", "attr": {"value": {"tensor": {"dtype": "DT_FLOAT", "tensorShape": {"dim": [{"size": "672"}]}}}, "dtype": {"type": "DT_FLOAT"}}}, {"name": "Const_94", "op": "Const", "attr": {"value": {"tensor": {"dtype": "DT_FLOAT", "tensorShape": {"dim": [{"size": "28"}, {"size": "672"}, {"size": "1"}, {"size": "1"}]}}}, "dtype": {"type": "DT_FLOAT"}}}, {"name": "Const_95", "op": "Const", "attr": {"dtype": {"type": "DT_FLOAT"}, "value": {"tensor": {"dtype": "DT_FLOAT", "tensorShape": {"dim": [{"size": "28"}]}}}}}, {"name": "Const_96", "op": "Const", "attr": {"dtype": {"type": "DT_FLOAT"}, "value": {"tensor": {"dtype": "DT_FLOAT", "tensorShape": {"dim": [{"size": "672"}, {"size": "28"}, {"size": "1"}, {"size": "1"}]}}}}}, {"name": "Const_97", "op": "Const", "attr": {"dtype": {"type": "DT_FLOAT"}, "value": {"tensor": {"dtype": "DT_FLOAT", "tensorShape": {"dim": [{"size": "672"}]}}}}}, {"name": "Const_98", "op": "Const", "attr": {"dtype": {"type": "DT_FLOAT"}, "value": {"tensor": {"dtype": "DT_FLOAT", "tensorShape": {"dim": [{"size": "112"}, {"size": "672"}, {"size": "1"}, {"size": "1"}]}}}}}, {"name": "Const_99", "op": "Const", "attr": {"dtype": {"type": "DT_FLOAT"}, "value": {"tensor": {"dtype": "DT_FLOAT", "tensorShape": {"dim": [{"size": "112"}]}}}}}, {"name": "Const_100", "op": "Const", "attr": {"dtype": {"type": "DT_FLOAT"}, "value": {"tensor": {"dtype": "DT_FLOAT", "tensorShape": {"dim": [{"size": "672"}, {"size": "112"}, {"size": "1"}, {"size": "1"}]}}}}}, {"name": "Const_101", "op": "Const", "attr": {"value": {"tensor": {"dtype": "DT_FLOAT", "tensorShape": {"dim": [{"size": "672"}]}}}, "dtype": {"type": "DT_FLOAT"}}}, {"name": "Const_102", "op": "Const", "attr": {"value": {"tensor": {"dtype": "DT_FLOAT", "tensorShape": {"dim": [{"size": "672"}, {"size": "1"}, {"size": "5"}, {"size": "5"}]}}}, "dtype": {"type": "DT_FLOAT"}}}, {"name": "Const_103", "op": "Const", "attr": {"dtype": {"type": "DT_FLOAT"}, "value": {"tensor": {"dtype": "DT_FLOAT", "tensorShape": {"dim": [{"size": "672"}]}}}}}, {"name": "Const_104", "op": "Const", "attr": {"value": {"tensor": {"dtype": "DT_FLOAT", "tensorShape": {"dim": [{"size": "28"}, {"size": "672"}, {"size": "1"}, {"size": "1"}]}}}, "dtype": {"type": "DT_FLOAT"}}}, {"name": "Const_105", "op": "Const", "attr": {"value": {"tensor": {"dtype": "DT_FLOAT", "tensorShape": {"dim": [{"size": "28"}]}}}, "dtype": {"type": "DT_FLOAT"}}}, {"name": "Const_106", "op": "Const", "attr": {"dtype": {"type": "DT_FLOAT"}, "value": {"tensor": {"dtype": "DT_FLOAT", "tensorShape": {"dim": [{"size": "672"}, {"size": "28"}, {"size": "1"}, {"size": "1"}]}}}}}, {"name": "Const_107", "op": "Const", "attr": {"dtype": {"type": "DT_FLOAT"}, "value": {"tensor": {"dtype": "DT_FLOAT", "tensorShape": {"dim": [{"size": "672"}]}}}}}, {"name": "Const_108", "op": "Const", "attr": {"dtype": {"type": "DT_FLOAT"}, "value": {"tensor": {"dtype": "DT_FLOAT", "tensorShape": {"dim": [{"size": "112"}, {"size": "672"}, {"size": "1"}, {"size": "1"}]}}}}}, {"name": "Const_109", "op": "Const", "attr": {"dtype": {"type": "DT_FLOAT"}, "value": {"tensor": {"dtype": "DT_FLOAT", "tensorShape": {"dim": [{"size": "112"}]}}}}}, {"name": "Const_110", "op": "Const", "attr": {"dtype": {"type": "DT_FLOAT"}, "value": {"tensor": {"dtype": "DT_FLOAT", "tensorShape": {"dim": [{"size": "672"}, {"size": "112"}, {"size": "1"}, {"size": "1"}]}}}}}, {"name": "Const_111", "op": "Const", "attr": {"dtype": {"type": "DT_FLOAT"}, "value": {"tensor": {"dtype": "DT_FLOAT", "tensorShape": {"dim": [{"size": "672"}]}}}}}, {"name": "Const_112", "op": "Const", "attr": {"value": {"tensor": {"dtype": "DT_FLOAT", "tensorShape": {"dim": [{"size": "672"}, {"size": "1"}, {"size": "5"}, {"size": "5"}]}}}, "dtype": {"type": "DT_FLOAT"}}}, {"name": "Const_113", "op": "Const", "attr": {"value": {"tensor": {"dtype": "DT_FLOAT", "tensorShape": {"dim": [{"size": "672"}]}}}, "dtype": {"type": "DT_FLOAT"}}}, {"name": "Const_114", "op": "Const", "attr": {"value": {"tensor": {"dtype": "DT_FLOAT", "tensorShape": {"dim": [{"size": "28"}, {"size": "672"}, {"size": "1"}, {"size": "1"}]}}}, "dtype": {"type": "DT_FLOAT"}}}, {"name": "Const_115", "op": "Const", "attr": {"value": {"tensor": {"dtype": "DT_FLOAT", "tensorShape": {"dim": [{"size": "28"}]}}}, "dtype": {"type": "DT_FLOAT"}}}, {"name": "Const_116", "op": "Const", "attr": {"value": {"tensor": {"dtype": "DT_FLOAT", "tensorShape": {"dim": [{"size": "672"}, {"size": "28"}, {"size": "1"}, {"size": "1"}]}}}, "dtype": {"type": "DT_FLOAT"}}}, {"name": "Const_117", "op": "Const", "attr": {"value": {"tensor": {"dtype": "DT_FLOAT", "tensorShape": {"dim": [{"size": "672"}]}}}, "dtype": {"type": "DT_FLOAT"}}}, {"name": "Const_118", "op": "Const", "attr": {"value": {"tensor": {"dtype": "DT_FLOAT", "tensorShape": {"dim": [{"size": "192"}, {"size": "672"}, {"size": "1"}, {"size": "1"}]}}}, "dtype": {"type": "DT_FLOAT"}}}, {"name": "Const_119", "op": "Const", "attr": {"dtype": {"type": "DT_FLOAT"}, "value": {"tensor": {"dtype": "DT_FLOAT", "tensorShape": {"dim": [{"size": "192"}]}}}}}, {"name": "Const_120", "op": "Const", "attr": {"value": {"tensor": {"dtype": "DT_FLOAT", "tensorShape": {"dim": [{"size": "1152"}, {"size": "192"}, {"size": "1"}, {"size": "1"}]}}}, "dtype": {"type": "DT_FLOAT"}}}, {"name": "Const_121", "op": "Const", "attr": {"dtype": {"type": "DT_FLOAT"}, "value": {"tensor": {"dtype": "DT_FLOAT", "tensorShape": {"dim": [{"size": "1152"}]}}}}}, {"name": "Const_122", "op": "Const", "attr": {"dtype": {"type": "DT_FLOAT"}, "value": {"tensor": {"dtype": "DT_FLOAT", "tensorShape": {"dim": [{"size": "1152"}, {"size": "1"}, {"size": "5"}, {"size": "5"}]}}}}}, {"name": "Const_123", "op": "Const", "attr": {"dtype": {"type": "DT_FLOAT"}, "value": {"tensor": {"dtype": "DT_FLOAT", "tensorShape": {"dim": [{"size": "1152"}]}}}}}, {"name": "Const_124", "op": "Const", "attr": {"value": {"tensor": {"dtype": "DT_FLOAT", "tensorShape": {"dim": [{"size": "48"}, {"size": "1152"}, {"size": "1"}, {"size": "1"}]}}}, "dtype": {"type": "DT_FLOAT"}}}, {"name": "Const_125", "op": "Const", "attr": {"dtype": {"type": "DT_FLOAT"}, "value": {"tensor": {"dtype": "DT_FLOAT", "tensorShape": {"dim": [{"size": "48"}]}}}}}, {"name": "Const_126", "op": "Const", "attr": {"dtype": {"type": "DT_FLOAT"}, "value": {"tensor": {"dtype": "DT_FLOAT", "tensorShape": {"dim": [{"size": "1152"}, {"size": "48"}, {"size": "1"}, {"size": "1"}]}}}}}, {"name": "Const_127", "op": "Const", "attr": {"dtype": {"type": "DT_FLOAT"}, "value": {"tensor": {"dtype": "DT_FLOAT", "tensorShape": {"dim": [{"size": "1152"}]}}}}}, {"name": "Const_128", "op": "Const", "attr": {"value": {"tensor": {"dtype": "DT_FLOAT", "tensorShape": {"dim": [{"size": "192"}, {"size": "1152"}, {"size": "1"}, {"size": "1"}]}}}, "dtype": {"type": "DT_FLOAT"}}}, {"name": "Const_129", "op": "Const", "attr": {"dtype": {"type": "DT_FLOAT"}, "value": {"tensor": {"dtype": "DT_FLOAT", "tensorShape": {"dim": [{"size": "192"}]}}}}}, {"name": "Const_130", "op": "Const", "attr": {"dtype": {"type": "DT_FLOAT"}, "value": {"tensor": {"dtype": "DT_FLOAT", "tensorShape": {"dim": [{"size": "1152"}, {"size": "192"}, {"size": "1"}, {"size": "1"}]}}}}}, {"name": "Const_131", "op": "Const", "attr": {"value": {"tensor": {"dtype": "DT_FLOAT", "tensorShape": {"dim": [{"size": "1152"}]}}}, "dtype": {"type": "DT_FLOAT"}}}, {"name": "Const_132", "op": "Const", "attr": {"dtype": {"type": "DT_FLOAT"}, "value": {"tensor": {"dtype": "DT_FLOAT", "tensorShape": {"dim": [{"size": "1152"}, {"size": "1"}, {"size": "5"}, {"size": "5"}]}}}}}, {"name": "Const_133", "op": "Const", "attr": {"dtype": {"type": "DT_FLOAT"}, "value": {"tensor": {"dtype": "DT_FLOAT", "tensorShape": {"dim": [{"size": "1152"}]}}}}}, {"name": "Const_134", "op": "Const", "attr": {"dtype": {"type": "DT_FLOAT"}, "value": {"tensor": {"dtype": "DT_FLOAT", "tensorShape": {"dim": [{"size": "48"}, {"size": "1152"}, {"size": "1"}, {"size": "1"}]}}}}}, {"name": "Const_135", "op": "Const", "attr": {"value": {"tensor": {"dtype": "DT_FLOAT", "tensorShape": {"dim": [{"size": "48"}]}}}, "dtype": {"type": "DT_FLOAT"}}}, {"name": "Const_136", "op": "Const", "attr": {"value": {"tensor": {"dtype": "DT_FLOAT", "tensorShape": {"dim": [{"size": "1152"}, {"size": "48"}, {"size": "1"}, {"size": "1"}]}}}, "dtype": {"type": "DT_FLOAT"}}}, {"name": "Const_137", "op": "Const", "attr": {"value": {"tensor": {"dtype": "DT_FLOAT", "tensorShape": {"dim": [{"size": "1152"}]}}}, "dtype": {"type": "DT_FLOAT"}}}, {"name": "Const_138", "op": "Const", "attr": {"dtype": {"type": "DT_FLOAT"}, "value": {"tensor": {"dtype": "DT_FLOAT", "tensorShape": {"dim": [{"size": "192"}, {"size": "1152"}, {"size": "1"}, {"size": "1"}]}}}}}, {"name": "Const_139", "op": "Const", "attr": {"dtype": {"type": "DT_FLOAT"}, "value": {"tensor": {"dtype": "DT_FLOAT", "tensorShape": {"dim": [{"size": "192"}]}}}}}, {"name": "Const_140", "op": "Const", "attr": {"value": {"tensor": {"dtype": "DT_FLOAT", "tensorShape": {"dim": [{"size": "1152"}, {"size": "192"}, {"size": "1"}, {"size": "1"}]}}}, "dtype": {"type": "DT_FLOAT"}}}, {"name": "Const_141", "op": "Const", "attr": {"value": {"tensor": {"dtype": "DT_FLOAT", "tensorShape": {"dim": [{"size": "1152"}]}}}, "dtype": {"type": "DT_FLOAT"}}}, {"name": "Const_142", "op": "Const", "attr": {"value": {"tensor": {"dtype": "DT_FLOAT", "tensorShape": {"dim": [{"size": "1152"}, {"size": "1"}, {"size": "5"}, {"size": "5"}]}}}, "dtype": {"type": "DT_FLOAT"}}}, {"name": "Const_143", "op": "Const", "attr": {"dtype": {"type": "DT_FLOAT"}, "value": {"tensor": {"dtype": "DT_FLOAT", "tensorShape": {"dim": [{"size": "1152"}]}}}}}, {"name": "Const_144", "op": "Const", "attr": {"dtype": {"type": "DT_FLOAT"}, "value": {"tensor": {"dtype": "DT_FLOAT", "tensorShape": {"dim": [{"size": "48"}, {"size": "1152"}, {"size": "1"}, {"size": "1"}]}}}}}, {"name": "Const_145", "op": "Const", "attr": {"dtype": {"type": "DT_FLOAT"}, "value": {"tensor": {"dtype": "DT_FLOAT", "tensorShape": {"dim": [{"size": "48"}]}}}}}, {"name": "Const_146", "op": "Const", "attr": {"value": {"tensor": {"dtype": "DT_FLOAT", "tensorShape": {"dim": [{"size": "1152"}, {"size": "48"}, {"size": "1"}, {"size": "1"}]}}}, "dtype": {"type": "DT_FLOAT"}}}, {"name": "Const_147", "op": "Const", "attr": {"dtype": {"type": "DT_FLOAT"}, "value": {"tensor": {"dtype": "DT_FLOAT", "tensorShape": {"dim": [{"size": "1152"}]}}}}}, {"name": "Const_148", "op": "Const", "attr": {"dtype": {"type": "DT_FLOAT"}, "value": {"tensor": {"dtype": "DT_FLOAT", "tensorShape": {"dim": [{"size": "192"}, {"size": "1152"}, {"size": "1"}, {"size": "1"}]}}}}}, {"name": "Const_149", "op": "Const", "attr": {"value": {"tensor": {"dtype": "DT_FLOAT", "tensorShape": {"dim": [{"size": "192"}]}}}, "dtype": {"type": "DT_FLOAT"}}}, {"name": "Const_150", "op": "Const", "attr": {"dtype": {"type": "DT_FLOAT"}, "value": {"tensor": {"dtype": "DT_FLOAT", "tensorShape": {"dim": [{"size": "1152"}, {"size": "192"}, {"size": "1"}, {"size": "1"}]}}}}}, {"name": "Const_151", "op": "Const", "attr": {"value": {"tensor": {"dtype": "DT_FLOAT", "tensorShape": {"dim": [{"size": "1152"}]}}}, "dtype": {"type": "DT_FLOAT"}}}, {"name": "Const_152", "op": "Const", "attr": {"dtype": {"type": "DT_FLOAT"}, "value": {"tensor": {"dtype": "DT_FLOAT", "tensorShape": {"dim": [{"size": "1152"}, {"size": "1"}, {"size": "3"}, {"size": "3"}]}}}}}, {"name": "Const_153", "op": "Const", "attr": {"dtype": {"type": "DT_FLOAT"}, "value": {"tensor": {"dtype": "DT_FLOAT", "tensorShape": {"dim": [{"size": "1152"}]}}}}}, {"name": "Const_154", "op": "Const", "attr": {"value": {"tensor": {"dtype": "DT_FLOAT", "tensorShape": {"dim": [{"size": "48"}, {"size": "1152"}, {"size": "1"}, {"size": "1"}]}}}, "dtype": {"type": "DT_FLOAT"}}}, {"name": "Const_155", "op": "Const", "attr": {"value": {"tensor": {"dtype": "DT_FLOAT", "tensorShape": {"dim": [{"size": "48"}]}}}, "dtype": {"type": "DT_FLOAT"}}}, {"name": "Const_156", "op": "Const", "attr": {"dtype": {"type": "DT_FLOAT"}, "value": {"tensor": {"dtype": "DT_FLOAT", "tensorShape": {"dim": [{"size": "1152"}, {"size": "48"}, {"size": "1"}, {"size": "1"}]}}}}}, {"name": "Const_157", "op": "Const", "attr": {"value": {"tensor": {"dtype": "DT_FLOAT", "tensorShape": {"dim": [{"size": "1152"}]}}}, "dtype": {"type": "DT_FLOAT"}}}, {"name": "Const_158", "op": "Const", "attr": {"value": {"tensor": {"dtype": "DT_FLOAT", "tensorShape": {"dim": [{"size": "320"}, {"size": "1152"}, {"size": "1"}, {"size": "1"}]}}}, "dtype": {"type": "DT_FLOAT"}}}, {"name": "Const_159", "op": "Const", "attr": {"value": {"tensor": {"dtype": "DT_FLOAT", "tensorShape": {"dim": [{"size": "320"}]}}}, "dtype": {"type": "DT_FLOAT"}}}, {"name": "Const_160", "op": "Const", "attr": {"dtype": {"type": "DT_FLOAT"}, "value": {"tensor": {"dtype": "DT_FLOAT", "tensorShape": {"dim": [{"size": "1280"}, {"size": "320"}, {"size": "1"}, {"size": "1"}]}}}}}, {"name": "Const_161", "op": "Const", "attr": {"value": {"tensor": {"dtype": "DT_FLOAT", "tensorShape": {"dim": [{"size": "1280"}]}}}, "dtype": {"type": "DT_FLOAT"}}}, {"name": "Const_162", "op": "Const", "attr": {"dtype": {"type": "DT_FLOAT"}, "value": {"tensor": {"dtype": "DT_FLOAT", "tensorShape": {"dim": [{"size": "400"}, {"size": "1280"}]}}}}}, {"name": "Const_163", "op": "Const", "attr": {"dtype": {"type": "DT_FLOAT"}, "value": {"tensor": {"dtype": "DT_FLOAT", "tensorShape": {"dim": [{"size": "400"}]}}}}}, {"name": "saver_filename", "op": "Placeholder", "attr": {"dtype": {"type": "DT_STRING"}, "shape": {"shape": {}}}}, {"name": "serving_default_melspectrogram", "op": "Placeholder", "attr": {"shape": {"shape": {"dim": [{"size": "64"}, {"size": "128"}, {"size": "96"}]}}, "dtype": {"type": "DT_FLOAT"}}}, {"name": "PartitionedCall", "op": "PartitionedCall", "input": ["serving_default_melspectrogram", "Const", "Const_1", "Const_2", "Const_3", "Const_4", "Const_5", "Const_6", "Const_7", "Const_8", "Const_9", "Const_10", "Const_11", "Const_12", "Const_13", "Const_14", "Const_15", "Const_16", "Const_17", "Const_18", "Const_19", "Const_20", "Const_21", "Const_22", "Const_23", "Const_24", "Const_25", "Const_26", "Const_27", "Const_28", "Const_29", "Const_30", "Const_31", "Const_32", "Const_33", "Const_34", "Const_35", "Const_36", "Const_37", "Const_38", "Const_39", "Const_40", "Const_41", "Const_42", "Const_43", "Const_44", "Const_45", "Const_46", "Const_47", "Const_48", "Const_49", "Const_50", "Const_51", "Const_52", "Const_53", "Const_54", "Const_55", "Const_56", "Const_57", "Const_58", "Const_59", "Const_60", "Const_61", "Const_62", "Const_63", "Const_64", "Const_65", "Const_66", "Const_67", "Const_68", "Const_69", "Const_70", "Const_71", "Const_72", "Const_73", "Const_74", "Const_75", "Const_76", "Const_77", "Const_78", "Const_79", "Const_80", "Const_81", "Const_82", "Const_83", "Const_84", "Const_85", "Const_86", "Const_87", "Const_88", "Const_89", "Const_90", "Const_91", "Const_92", "Const_93", "Const_94", "Const_95", "Const_96", "Const_97", "Const_98", "Const_99", "Const_100", "Const_101", "Const_102", "Const_103", "Const_104", "Const_105", "Const_106", "Const_107", "Const_108", "Const_109", "Const_110", "Const_111", "Const_112", "Const_113", "Const_114", "Const_115", "Const_116", "Const_117", "Const_118", "Const_119", "Const_120", "Const_121", "Const_122", "Const_123", "Const_124", "Const_125", "Const_126", "Const_127", "Const_128", "Const_129", "Const_130", "Const_131", "Const_132", "Const_133", "Const_134", "Const_135", "Const_136", "Const_137", "Const_138", "Const_139", "Const_140", "Const_141", "Const_142", "Const_143", "Const_144", "Const_145", "Const_146", "Const_147", "Const_148", "Const_149", "Const_150", "Const_151", "Const_152", "Const_153", "Const_154", "Const_155", "Const_156", "Const_157", "Const_158", "Const_159", "Const_160", "Const_161", "Const_162", "Const_163"], "attr": {"Tin": {"list": {"type": ["DT_FLOAT", "DT_FLOAT", "DT_FLOAT", "DT_FLOAT", "DT_FLOAT", "DT_FLOAT", "DT_FLOAT", "DT_FLOAT", "DT_FLOAT", "DT_FLOAT", "DT_FLOAT", "DT_FLOAT", "DT_FLOAT", "DT_FLOAT", "DT_FLOAT", "DT_FLOAT", "DT_FLOAT", "DT_FLOAT", "DT_FLOAT", "DT_FLOAT", "DT_FLOAT", "DT_FLOAT", "DT_FLOAT", "DT_FLOAT", "DT_FLOAT", "DT_FLOAT", "DT_FLOAT", "DT_FLOAT", "DT_FLOAT", "DT_FLOAT", "DT_FLOAT", "DT_FLOAT", "DT_FLOAT", "DT_FLOAT", "DT_FLOAT", "DT_FLOAT", "DT_FLOAT", "DT_FLOAT", "DT_FLOAT", "DT_FLOAT", "DT_FLOAT", "DT_FLOAT", "DT_FLOAT", "DT_FLOAT", "DT_FLOAT", "DT_FLOAT", "DT_FLOAT", "DT_FLOAT", "DT_FLOAT", "DT_FLOAT", "DT_FLOAT", "DT_FLOAT", "DT_FLOAT", "DT_FLOAT", "DT_FLOAT", "DT_FLOAT", "DT_FLOAT", "DT_FLOAT", "DT_FLOAT", "DT_FLOAT", "DT_FLOAT", "DT_FLOAT", "DT_FLOAT", "DT_FLOAT", "DT_FLOAT", "DT_FLOAT", "DT_FLOAT", "DT_FLOAT", "DT_FLOAT", "DT_FLOAT", "DT_FLOAT", "DT_FLOAT", "DT_FLOAT", "DT_FLOAT", "DT_FLOAT", "DT_FLOAT", "DT_FLOAT", "DT_FLOAT", "DT_FLOAT", "DT_FLOAT", "DT_FLOAT", "DT_FLOAT", "DT_FLOAT", "DT_FLOAT", "DT_FLOAT", "DT_FLOAT", "DT_FLOAT", "DT_FLOAT", "DT_FLOAT", "DT_FLOAT", "DT_FLOAT", "DT_FLOAT", "DT_FLOAT", "DT_FLOAT", "DT_FLOAT", "DT_FLOAT", "DT_FLOAT", "DT_FLOAT", "DT_FLOAT", "DT_FLOAT", "DT_FLOAT", "DT_FLOAT", "DT_FLOAT", "DT_FLOAT", "DT_FLOAT", "DT_FLOAT", "DT_FLOAT", "DT_FLOAT", "DT_FLOAT", "DT_FLOAT", "DT_FLOAT", "DT_FLOAT", "DT_FLOAT", "DT_FLOAT", "DT_FLOAT", "DT_FLOAT", "DT_FLOAT", "DT_FLOAT", "DT_FLOAT", "DT_FLOAT", "DT_FLOAT", "DT_FLOAT", "DT_FLOAT", "DT_FLOAT", "DT_FLOAT", "DT_FLOAT", "DT_FLOAT", "DT_FLOAT", "DT_FLOAT", "DT_FLOAT", "DT_FLOAT", "DT_FLOAT", "DT_FLOAT", "DT_FLOAT", "DT_FLOAT", "DT_FLOAT", "DT_FLOAT", "DT_FLOAT", "DT_FLOAT", "DT_FLOAT", "DT_FLOAT", "DT_FLOAT", "DT_FLOAT", "DT_FLOAT", "DT_FLOAT", "DT_FLOAT", "DT_FLOAT", "DT_FLOAT", "DT_FLOAT", "DT_FLOAT", "DT_FLOAT", "DT_FLOAT", "DT_FLOAT", "DT_FLOAT", "DT_FLOAT", "DT_FLOAT", "DT_FLOAT", "DT_FLOAT", "DT_FLOAT", "DT_FLOAT", "DT_FLOAT", "DT_FLOAT", "DT_FLOAT", "DT_FLOAT", "DT_FLOAT"]}}, "executor_type": {"s": ""}, "config_proto": {"s": "CgcKA0NQVRABCgcKA0dQVRAAMgJKADgBggEA"}, "Tout": {"list": {"type": ["DT_FLOAT", "DT_FLOAT"]}}, "config": {"s": ""}, "f": {"func": {"name": "__inference_signature_wrapper_2264"}}, "_collective_manager_ids": {"list": {}}, "_read_only_resource_inputs": {"list": {}}}}], "library": {"function": [{"signature": {"name": "__inference___call___1927", "inputArg": [{"name": "melspectrogram", "type": "DT_FLOAT"}, {"name": "transpose_x", "type": "DT_FLOAT"}, {"name": "add_y", "type": "DT_FLOAT"}, {"name": "transpose_3_x", "type": "DT_FLOAT"}, {"name": "add_1_y", "type": "DT_FLOAT"}, {"name": "transpose_6_x", "type": "DT_FLOAT"}, {"name": "add_2_y", "type": "DT_FLOAT"}, {"name": "transpose_9_x", "type": "DT_FLOAT"}, {"name": "add_3_y", "type": "DT_FLOAT"}, {"name": "transpose_12_x", "type": "DT_FLOAT"}, {"name": "add_4_y", "type": "DT_FLOAT"}, {"name": "transpose_15_x", "type": "DT_FLOAT"}, {"name": "add_5_y", "type": "DT_FLOAT"}, {"name": "transpose_18_x", "type": "DT_FLOAT"}, {"name": "add_6_y", "type": "DT_FLOAT"}, {"name": "transpose_21_x", "type": "DT_FLOAT"}, {"name": "add_7_y", "type": "DT_FLOAT"}, {"name": "transpose_24_x", "type": "DT_FLOAT"}, {"name": "add_8_y", "type": "DT_FLOAT"}, {"name": "transpose_27_x", "type": "DT_FLOAT"}, {"name": "add_9_y", "type": "DT_FLOAT"}, {"name": "transpose_30_x", "type": "DT_FLOAT"}, {"name": "add_10_y", "type": "DT_FLOAT"}, {"name": "transpose_33_x", "type": "DT_FLOAT"}, {"name": "add_11_y", "type": "DT_FLOAT"}, {"name": "transpose_36_x", "type": "DT_FLOAT"}, {"name": "add_12_y", "type": "DT_FLOAT"}, {"name": "transpose_39_x", "type": "DT_FLOAT"}, {"name": "add_13_y", "type": "DT_FLOAT"}, {"name": "transpose_42_x", "type": "DT_FLOAT"}, {"name": "add_14_y", "type": "DT_FLOAT"}, {"name": "transpose_45_x", "type": "DT_FLOAT"}, {"name": "add_15_y", "type": "DT_FLOAT"}, {"name": "transpose_48_x", "type": "DT_FLOAT"}, {"name": "add_16_y", "type": "DT_FLOAT"}, {"name": "transpose_51_x", "type": "DT_FLOAT"}, {"name": "add_17_y", "type": "DT_FLOAT"}, {"name": "transpose_54_x", "type": "DT_FLOAT"}, {"name": "add_18_y", "type": "DT_FLOAT"}, {"name": "transpose_57_x", "type": "DT_FLOAT"}, {"name": "add_19_y", "type": "DT_FLOAT"}, {"name": "transpose_60_x", "type": "DT_FLOAT"}, {"name": "add_20_y", "type": "DT_FLOAT"}, {"name": "transpose_63_x", "type": "DT_FLOAT"}, {"name": "add_21_y", "type": "DT_FLOAT"}, {"name": "transpose_66_x", "type": "DT_FLOAT"}, {"name": "add_22_y", "type": "DT_FLOAT"}, {"name": "transpose_69_x", "type": "DT_FLOAT"}, {"name": "add_23_y", "type": "DT_FLOAT"}, {"name": "transpose_72_x", "type": "DT_FLOAT"}, {"name": "add_24_y", "type": "DT_FLOAT"}, {"name": "transpose_75_x", "type": "DT_FLOAT"}, {"name": "add_25_y", "type": "DT_FLOAT"}, {"name": "transpose_78_x", "type": "DT_FLOAT"}, {"name": "add_26_y", "type": "DT_FLOAT"}, {"name": "transpose_81_x", "type": "DT_FLOAT"}, {"name": "add_27_y", "type": "DT_FLOAT"}, {"name": "transpose_84_x", "type": "DT_FLOAT"}, {"name": "add_28_y", "type": "DT_FLOAT"}, {"name": "transpose_87_x", "type": "DT_FLOAT"}, {"name": "add_29_y", "type": "DT_FLOAT"}, {"name": "transpose_90_x", "type": "DT_FLOAT"}, {"name": "add_30_y", "type": "DT_FLOAT"}, {"name": "transpose_93_x", "type": "DT_FLOAT"}, {"name": "add_31_y", "type": "DT_FLOAT"}, {"name": "transpose_96_x", "type": "DT_FLOAT"}, {"name": "add_32_y", "type": "DT_FLOAT"}, {"name": "transpose_99_x", "type": "DT_FLOAT"}, {"name": "add_33_y", "type": "DT_FLOAT"}, {"name": "transpose_102_x", "type": "DT_FLOAT"}, {"name": "add_34_y", "type": "DT_FLOAT"}, {"name": "transpose_105_x", "type": "DT_FLOAT"}, {"name": "add_35_y", "type": "DT_FLOAT"}, {"name": "transpose_108_x", "type": "DT_FLOAT"}, {"name": "add_36_y", "type": "DT_FLOAT"}, {"name": "transpose_111_x", "type": "DT_FLOAT"}, {"name": "add_37_y", "type": "DT_FLOAT"}, {"name": "transpose_114_x", "type": "DT_FLOAT"}, {"name": "add_38_y", "type": "DT_FLOAT"}, {"name": "transpose_117_x", "type": "DT_FLOAT"}, {"name": "add_39_y", "type": "DT_FLOAT"}, {"name": "transpose_120_x", "type": "DT_FLOAT"}, {"name": "add_40_y", "type": "DT_FLOAT"}, {"name": "transpose_123_x", "type": "DT_FLOAT"}, {"name": "add_41_y", "type": "DT_FLOAT"}, {"name": "transpose_126_x", "type": "DT_FLOAT"}, {"name": "add_42_y", "type": "DT_FLOAT"}, {"name": "transpose_129_x", "type": "DT_FLOAT"}, {"name": "add_43_y", "type": "DT_FLOAT"}, {"name": "transpose_132_x", "type": "DT_FLOAT"}, {"name": "add_44_y", "type": "DT_FLOAT"}, {"name": "transpose_135_x", "type": "DT_FLOAT"}, {"name": "add_45_y", "type": "DT_FLOAT"}, {"name": "transpose_138_x", "type": "DT_FLOAT"}, {"name": "add_46_y", "type": "DT_FLOAT"}, {"name": "transpose_141_x", "type": "DT_FLOAT"}, {"name": "add_47_y", "type": "DT_FLOAT"}, {"name": "transpose_144_x", "type": "DT_FLOAT"}, {"name": "add_48_y", "type": "DT_FLOAT"}, {"name": "transpose_147_x", "type": "DT_FLOAT"}, {"name": "add_49_y", "type": "DT_FLOAT"}, {"name": "transpose_150_x", "type": "DT_FLOAT"}, {"name": "add_50_y", "type": "DT_FLOAT"}, {"name": "transpose_153_x", "type": "DT_FLOAT"}, {"name": "add_51_y", "type": "DT_FLOAT"}, {"name": "transpose_156_x", "type": "DT_FLOAT"}, {"name": "add_52_y", "type": "DT_FLOAT"}, {"name": "transpose_159_x", "type": "DT_FLOAT"}, {"name": "add_53_y", "type": "DT_FLOAT"}, {"name": "transpose_162_x", "type": "DT_FLOAT"}, {"name": "add_54_y", "type": "DT_FLOAT"}, {"name": "transpose_165_x", "type": "DT_FLOAT"}, {"name": "add_55_y", "type": "DT_FLOAT"}, {"name": "transpose_168_x", "type": "DT_FLOAT"}, {"name": "add_56_y", "type": "DT_FLOAT"}, {"name": "transpose_171_x", "type": "DT_FLOAT"}, {"name": "add_57_y", "type": "DT_FLOAT"}, {"name": "transpose_174_x", "type": "DT_FLOAT"}, {"name": "add_58_y", "type": "DT_FLOAT"}, {"name": "transpose_177_x", "type": "DT_FLOAT"}, {"name": "add_59_y", "type": "DT_FLOAT"}, {"name": "transpose_180_x", "type": "DT_FLOAT"}, {"name": "add_60_y", "type": "DT_FLOAT"}, {"name": "transpose_183_x", "type": "DT_FLOAT"}, {"name": "add_61_y", "type": "DT_FLOAT"}, {"name": "transpose_186_x", "type": "DT_FLOAT"}, {"name": "add_62_y", "type": "DT_FLOAT"}, {"name": "transpose_189_x", "type": "DT_FLOAT"}, {"name": "add_63_y", "type": "DT_FLOAT"}, {"name": "transpose_192_x", "type": "DT_FLOAT"}, {"name": "add_64_y", "type": "DT_FLOAT"}, {"name": "transpose_195_x", "type": "DT_FLOAT"}, {"name": "add_65_y", "type": "DT_FLOAT"}, {"name": "transpose_198_x", "type": "DT_FLOAT"}, {"name": "add_66_y", "type": "DT_FLOAT"}, {"name": "transpose_201_x", "type": "DT_FLOAT"}, {"name": "add_67_y", "type": "DT_FLOAT"}, {"name": "transpose_204_x", "type": "DT_FLOAT"}, {"name": "add_68_y", "type": "DT_FLOAT"}, {"name": "transpose_207_x", "type": "DT_FLOAT"}, {"name": "add_69_y", "type": "DT_FLOAT"}, {"name": "transpose_210_x", "type": "DT_FLOAT"}, {"name": "add_70_y", "type": "DT_FLOAT"}, {"name": "transpose_213_x", "type": "DT_FLOAT"}, {"name": "add_71_y", "type": "DT_FLOAT"}, {"name": "transpose_216_x", "type": "DT_FLOAT"}, {"name": "add_72_y", "type": "DT_FLOAT"}, {"name": "transpose_219_x", "type": "DT_FLOAT"}, {"name": "add_73_y", "type": "DT_FLOAT"}, {"name": "transpose_222_x", "type": "DT_FLOAT"}, {"name": "add_74_y", "type": "DT_FLOAT"}, {"name": "transpose_225_x", "type": "DT_FLOAT"}, {"name": "add_75_y", "type": "DT_FLOAT"}, {"name": "transpose_228_x", "type": "DT_FLOAT"}, {"name": "add_76_y", "type": "DT_FLOAT"}, {"name": "transpose_231_x", "type": "DT_FLOAT"}, {"name": "add_77_y", "type": "DT_FLOAT"}, {"name": "transpose_234_x", "type": "DT_FLOAT"}, {"name": "add_78_y", "type": "DT_FLOAT"}, {"name": "transpose_237_x", "type": "DT_FLOAT"}, {"name": "add_79_y", "type": "DT_FLOAT"}, {"name": "transpose_240_x", "type": "DT_FLOAT"}, {"name": "add_80_y", "type": "DT_FLOAT"}, {"name": "transpose_243_x", "type": "DT_FLOAT"}, {"name": "mul_1_y", "type": "DT_FLOAT"}], "outputArg": [{"name": "identity_1", "type": "DT_FLOAT"}, {"name": "identity_2", "type": "DT_FLOAT"}]}, "nodeDef": [{"name": "__inference___call___1927/mul_1/x", "op": "Const", "attr": {"value": {"tensor": {"dtype": "DT_FLOAT", "tensorShape": {}}}, "_output_shapes": {"list": {"shape": [{}]}}, "dtype": {"type": "DT_FLOAT"}}}, {"name": "__inference___call___1927/ConstantFolding/split_76-folded-1", "op": "Const", "attr": {"value": {"tensor": {"dtype": "DT_INT32", "tensorShape": {"dim": [{"size": "2"}]}}}, "dtype": {"type": "DT_INT32"}}}, {"name": "__inference___call___1927/transpose_232/perm", "op": "Const", "attr": {"dtype": {"type": "DT_INT32"}, "_output_shapes": {"list": {"shape": [{"dim": [{"size": "4"}]}]}}, "value": {"tensor": {"dtype": "DT_INT32", "tensorShape": {"dim": [{"size": "4"}]}}}}}, {"name": "__inference___call___1927/transpose_231/perm", "op": "Const", "attr": {"dtype": {"type": "DT_INT32"}, "value": {"tensor": {"dtype": "DT_INT32", "tensorShape": {"dim": [{"size": "4"}]}}}, "_output_shapes": {"list": {"shape": [{"dim": [{"size": "4"}]}]}}}}, {"name": "__inference___call___1927/transpose_233/perm", "op": "Const", "attr": {"_output_shapes": {"list": {"shape": [{"dim": [{"size": "4"}]}]}}, "dtype": {"type": "DT_INT32"}, "value": {"tensor": {"dtype": "DT_INT32", "tensorShape": {"dim": [{"size": "4"}]}}}}}, {"name": "__inference___call___1927/transpose_235/perm", "op": "Const", "attr": {"value": {"tensor": {"dtype": "DT_INT32", "tensorShape": {"dim": [{"size": "4"}]}}}, "dtype": {"type": "DT_INT32"}, "_output_shapes": {"list": {"shape": [{"dim": [{"size": "4"}]}]}}}}, {"name": "__inference___call___1927/transpose_234/perm", "op": "Const", "attr": {"_output_shapes": {"list": {"shape": [{"dim": [{"size": "4"}]}]}}, "value": {"tensor": {"dtype": "DT_INT32", "tensorShape": {"dim": [{"size": "4"}]}}}, "dtype": {"type": "DT_INT32"}}}, {"name": "__inference___call___1927/transpose_236/perm", "op": "Const", "attr": {"value": {"tensor": {"dtype": "DT_INT32", "tensorShape": {"dim": [{"size": "4"}]}}}, "_output_shapes": {"list": {"shape": [{"dim": [{"size": "4"}]}]}}, "dtype": {"type": "DT_INT32"}}}, {"name": "__inference___call___1927/ConstantFolding/split_71-folded-1", "op": "Const", "attr": {"value": {"tensor": {"dtype": "DT_INT32", "tensorShape": {"dim": [{"size": "2"}]}}}, "dtype": {"type": "DT_INT32"}}}, {"name": "__inference___call___1927/transpose_217/perm", "op": "Const", "attr": {"value": {"tensor": {"dtype": "DT_INT32", "tensorShape": {"dim": [{"size": "4"}]}}}, "dtype": {"type": "DT_INT32"}, "_output_shapes": {"list": {"shape": [{"dim": [{"size": "4"}]}]}}}}, {"name": "__inference___call___1927/transpose_216/perm", "op": "Const", "attr": {"value": {"tensor": {"dtype": "DT_INT32", "tensorShape": {"dim": [{"size": "4"}]}}}, "dtype": {"type": "DT_INT32"}, "_output_shapes": {"list": {"shape": [{"dim": [{"size": "4"}]}]}}}}, {"name": "__inference___call___1927/transpose_218/perm", "op": "Const", "attr": {"dtype": {"type": "DT_INT32"}, "value": {"tensor": {"dtype": "DT_INT32", "tensorShape": {"dim": [{"size": "4"}]}}}, "_output_shapes": {"list": {"shape": [{"dim": [{"size": "4"}]}]}}}}, {"name": "__inference___call___1927/transpose_220/perm", "op": "Const", "attr": {"_output_shapes": {"list": {"shape": [{"dim": [{"size": "4"}]}]}}, "dtype": {"type": "DT_INT32"}, "value": {"tensor": {"dtype": "DT_INT32", "tensorShape": {"dim": [{"size": "4"}]}}}}}, {"name": "__inference___call___1927/transpose_219/perm", "op": "Const", "attr": {"value": {"tensor": {"dtype": "DT_INT32", "tensorShape": {"dim": [{"size": "4"}]}}}, "_output_shapes": {"list": {"shape": [{"dim": [{"size": "4"}]}]}}, "dtype": {"type": "DT_INT32"}}}, {"name": "__inference___call___1927/transpose_221/perm", "op": "Const", "attr": {"value": {"tensor": {"dtype": "DT_INT32", "tensorShape": {"dim": [{"size": "4"}]}}}, "_output_shapes": {"list": {"shape": [{"dim": [{"size": "4"}]}]}}, "dtype": {"type": "DT_INT32"}}}, {"name": "__inference___call___1927/transpose_211/perm", "op": "Const", "attr": {"_output_shapes": {"list": {"shape": [{"dim": [{"size": "4"}]}]}}, "dtype": {"type": "DT_INT32"}, "value": {"tensor": {"dtype": "DT_INT32", "tensorShape": {"dim": [{"size": "4"}]}}}}}, {"name": "__inference___call___1927/transpose_210/perm", "op": "Const", "attr": {"value": {"tensor": {"dtype": "DT_INT32", "tensorShape": {"dim": [{"size": "4"}]}}}, "dtype": {"type": "DT_INT32"}, "_output_shapes": {"list": {"shape": [{"dim": [{"size": "4"}]}]}}}}, {"name": "__inference___call___1927/transpose_212/perm", "op": "Const", "attr": {"_output_shapes": {"list": {"shape": [{"dim": [{"size": "4"}]}]}}, "dtype": {"type": "DT_INT32"}, "value": {"tensor": {"dtype": "DT_INT32", "tensorShape": {"dim": [{"size": "4"}]}}}}}, {"name": "__inference___call___1927/Const_15", "op": "Const", "attr": {"dtype": {"type": "DT_INT32"}, "value": {"tensor": {"dtype": "DT_INT32", "tensorShape": {"dim": [{"size": "4"}, {"size": "2"}]}}}, "_output_shapes": {"list": {"shape": [{"dim": [{"size": "4"}, {"size": "2"}]}]}}}}, {"name": "__inference___call___1927/transpose_214/perm", "op": "Const", "attr": {"_output_shapes": {"list": {"shape": [{"dim": [{"size": "4"}]}]}}, "dtype": {"type": "DT_INT32"}, "value": {"tensor": {"dtype": "DT_INT32", "tensorShape": {"dim": [{"size": "4"}]}}}}}, {"name": "__inference___call___1927/transpose_213/perm", "op": "Const", "attr": {"value": {"tensor": {"dtype": "DT_INT32", "tensorShape": {"dim": [{"size": "4"}]}}}, "_output_shapes": {"list": {"shape": [{"dim": [{"size": "4"}]}]}}, "dtype": {"type": "DT_INT32"}}}, {"name": "__inference___call___1927/Reshape_14/shape", "op": "Const", "attr": {"value": {"tensor": {"dtype": "DT_INT32", "tensorShape": {"dim": [{"size": "4"}]}}}, "_output_shapes": {"list": {"shape": [{"dim": [{"size": "4"}]}]}}, "dtype": {"type": "DT_INT32"}}}, {"name": "__inference___call___1927/transpose_215/perm", "op": "Const", "attr": {"dtype": {"type": "DT_INT32"}, "value": {"tensor": {"dtype": "DT_INT32", "tensorShape": {"dim": [{"size": "4"}]}}}, "_output_shapes": {"list": {"shape": [{"dim": [{"size": "4"}]}]}}}}, {"name": "__inference___call___1927/transpose_223/perm", "op": "Const", "attr": {"_output_shapes": {"list": {"shape": [{"dim": [{"size": "4"}]}]}}, "dtype": {"type": "DT_INT32"}, "value": {"tensor": {"dtype": "DT_INT32", "tensorShape": {"dim": [{"size": "4"}]}}}}}, {"name": "__inference___call___1927/transpose_222/perm", "op": "Const", "attr": {"dtype": {"type": "DT_INT32"}, "value": {"tensor": {"dtype": "DT_INT32", "tensorShape": {"dim": [{"size": "4"}]}}}, "_output_shapes": {"list": {"shape": [{"dim": [{"size": "4"}]}]}}}}, {"name": "__inference___call___1927/transpose_224/perm", "op": "Const", "attr": {"value": {"tensor": {"dtype": "DT_INT32", "tensorShape": {"dim": [{"size": "4"}]}}}, "_output_shapes": {"list": {"shape": [{"dim": [{"size": "4"}]}]}}, "dtype": {"type": "DT_INT32"}}}, {"name": "__inference___call___1927/ConstantFolding/split_66-folded-1", "op": "Const", "attr": {"value": {"tensor": {"dtype": "DT_INT32", "tensorShape": {"dim": [{"size": "2"}]}}}, "dtype": {"type": "DT_INT32"}}}, {"name": "__inference___call___1927/transpose_202/perm", "op": "Const", "attr": {"dtype": {"type": "DT_INT32"}, "value": {"tensor": {"dtype": "DT_INT32", "tensorShape": {"dim": [{"size": "4"}]}}}, "_output_shapes": {"list": {"shape": [{"dim": [{"size": "4"}]}]}}}}, {"name": "__inference___call___1927/transpose_201/perm", "op": "Const", "attr": {"dtype": {"type": "DT_INT32"}, "_output_shapes": {"list": {"shape": [{"dim": [{"size": "4"}]}]}}, "value": {"tensor": {"dtype": "DT_INT32", "tensorShape": {"dim": [{"size": "4"}]}}}}}, {"name": "__inference___call___1927/transpose_203/perm", "op": "Const", "attr": {"dtype": {"type": "DT_INT32"}, "value": {"tensor": {"dtype": "DT_INT32", "tensorShape": {"dim": [{"size": "4"}]}}}, "_output_shapes": {"list": {"shape": [{"dim": [{"size": "4"}]}]}}}}, {"name": "__inference___call___1927/transpose_205/perm", "op": "Const", "attr": {"dtype": {"type": "DT_INT32"}, "value": {"tensor": {"dtype": "DT_INT32", "tensorShape": {"dim": [{"size": "4"}]}}}, "_output_shapes": {"list": {"shape": [{"dim": [{"size": "4"}]}]}}}}, {"name": "__inference___call___1927/transpose_204/perm", "op": "Const", "attr": {"dtype": {"type": "DT_INT32"}, "value": {"tensor": {"dtype": "DT_INT32", "tensorShape": {"dim": [{"size": "4"}]}}}, "_output_shapes": {"list": {"shape": [{"dim": [{"size": "4"}]}]}}}}, {"name": "__inference___call___1927/transpose_206/perm", "op": "Const", "attr": {"dtype": {"type": "DT_INT32"}, "_output_shapes": {"list": {"shape": [{"dim": [{"size": "4"}]}]}}, "value": {"tensor": {"dtype": "DT_INT32", "tensorShape": {"dim": [{"size": "4"}]}}}}}, {"name": "__inference___call___1927/transpose_196/perm", "op": "Const", "attr": {"dtype": {"type": "DT_INT32"}, "value": {"tensor": {"dtype": "DT_INT32", "tensorShape": {"dim": [{"size": "4"}]}}}, "_output_shapes": {"list": {"shape": [{"dim": [{"size": "4"}]}]}}}}, {"name": "__inference___call___1927/transpose_195/perm", "op": "Const", "attr": {"dtype": {"type": "DT_INT32"}, "value": {"tensor": {"dtype": "DT_INT32", "tensorShape": {"dim": [{"size": "4"}]}}}, "_output_shapes": {"list": {"shape": [{"dim": [{"size": "4"}]}]}}}}, {"name": "__inference___call___1927/transpose_197/perm", "op": "Const", "attr": {"dtype": {"type": "DT_INT32"}, "value": {"tensor": {"dtype": "DT_INT32", "tensorShape": {"dim": [{"size": "4"}]}}}, "_output_shapes": {"list": {"shape": [{"dim": [{"size": "4"}]}]}}}}, {"name": "__inference___call___1927/Const_14", "op": "Const", "attr": {"value": {"tensor": {"dtype": "DT_INT32", "tensorShape": {"dim": [{"size": "4"}, {"size": "2"}]}}}, "dtype": {"type": "DT_INT32"}, "_output_shapes": {"list": {"shape": [{"dim": [{"size": "4"}, {"size": "2"}]}]}}}}, {"name": "__inference___call___1927/transpose_199/perm", "op": "Const", "attr": {"_output_shapes": {"list": {"shape": [{"dim": [{"size": "4"}]}]}}, "value": {"tensor": {"dtype": "DT_INT32", "tensorShape": {"dim": [{"size": "4"}]}}}, "dtype": {"type": "DT_INT32"}}}, {"name": "__inference___call___1927/transpose_198/perm", "op": "Const", "attr": {"_output_shapes": {"list": {"shape": [{"dim": [{"size": "4"}]}]}}, "value": {"tensor": {"dtype": "DT_INT32", "tensorShape": {"dim": [{"size": "4"}]}}}, "dtype": {"type": "DT_INT32"}}}, {"name": "__inference___call___1927/Reshape_13/shape", "op": "Const", "attr": {"value": {"tensor": {"dtype": "DT_INT32", "tensorShape": {"dim": [{"size": "4"}]}}}, "dtype": {"type": "DT_INT32"}, "_output_shapes": {"list": {"shape": [{"dim": [{"size": "4"}]}]}}}}, {"name": "__inference___call___1927/transpose_200/perm", "op": "Const", "attr": {"_output_shapes": {"list": {"shape": [{"dim": [{"size": "4"}]}]}}, "value": {"tensor": {"dtype": "DT_INT32", "tensorShape": {"dim": [{"size": "4"}]}}}, "dtype": {"type": "DT_INT32"}}}, {"name": "__inference___call___1927/transpose_208/perm", "op": "Const", "attr": {"value": {"tensor": {"dtype": "DT_INT32", "tensorShape": {"dim": [{"size": "4"}]}}}, "dtype": {"type": "DT_INT32"}, "_output_shapes": {"list": {"shape": [{"dim": [{"size": "4"}]}]}}}}, {"name": "__inference___call___1927/transpose_207/perm", "op": "Const", "attr": {"_output_shapes": {"list": {"shape": [{"dim": [{"size": "4"}]}]}}, "value": {"tensor": {"dtype": "DT_INT32", "tensorShape": {"dim": [{"size": "4"}]}}}, "dtype": {"type": "DT_INT32"}}}, {"name": "__inference___call___1927/transpose_209/perm", "op": "Const", "attr": {"_output_shapes": {"list": {"shape": [{"dim": [{"size": "4"}]}]}}, "value": {"tensor": {"dtype": "DT_INT32", "tensorShape": {"dim": [{"size": "4"}]}}}, "dtype": {"type": "DT_INT32"}}}, {"name": "__inference___call___1927/ConstantFolding/split_61-folded-1", "op": "Const", "attr": {"value": {"tensor": {"dtype": "DT_INT32", "tensorShape": {"dim": [{"size": "2"}]}}}, "dtype": {"type": "DT_INT32"}}}, {"name": "__inference___call___1927/transpose_187/perm", "op": "Const", "attr": {"dtype": {"type": "DT_INT32"}, "_output_shapes": {"list": {"shape": [{"dim": [{"size": "4"}]}]}}, "value": {"tensor": {"dtype": "DT_INT32", "tensorShape": {"dim": [{"size": "4"}]}}}}}, {"name": "__inference___call___1927/transpose_186/perm", "op": "Const", "attr": {"dtype": {"type": "DT_INT32"}, "_output_shapes": {"list": {"shape": [{"dim": [{"size": "4"}]}]}}, "value": {"tensor": {"dtype": "DT_INT32", "tensorShape": {"dim": [{"size": "4"}]}}}}}, {"name": "__inference___call___1927/transpose_188/perm", "op": "Const", "attr": {"value": {"tensor": {"dtype": "DT_INT32", "tensorShape": {"dim": [{"size": "4"}]}}}, "dtype": {"type": "DT_INT32"}, "_output_shapes": {"list": {"shape": [{"dim": [{"size": "4"}]}]}}}}, {"name": "__inference___call___1927/transpose_190/perm", "op": "Const", "attr": {"dtype": {"type": "DT_INT32"}, "_output_shapes": {"list": {"shape": [{"dim": [{"size": "4"}]}]}}, "value": {"tensor": {"dtype": "DT_INT32", "tensorShape": {"dim": [{"size": "4"}]}}}}}, {"name": "__inference___call___1927/transpose_189/perm", "op": "Const", "attr": {"value": {"tensor": {"dtype": "DT_INT32", "tensorShape": {"dim": [{"size": "4"}]}}}, "dtype": {"type": "DT_INT32"}, "_output_shapes": {"list": {"shape": [{"dim": [{"size": "4"}]}]}}}}, {"name": "__inference___call___1927/transpose_191/perm", "op": "Const", "attr": {"_output_shapes": {"list": {"shape": [{"dim": [{"size": "4"}]}]}}, "value": {"tensor": {"dtype": "DT_INT32", "tensorShape": {"dim": [{"size": "4"}]}}}, "dtype": {"type": "DT_INT32"}}}, {"name": "__inference___call___1927/transpose_180/perm", "op": "Const", "attr": {"dtype": {"type": "DT_INT32"}, "_output_shapes": {"list": {"shape": [{"dim": [{"size": "4"}]}]}}, "value": {"tensor": {"dtype": "DT_INT32", "tensorShape": {"dim": [{"size": "4"}]}}}}}, {"name": "__inference___call___1927/transpose_182/perm", "op": "Const", "attr": {"value": {"tensor": {"dtype": "DT_INT32", "tensorShape": {"dim": [{"size": "4"}]}}}, "_output_shapes": {"list": {"shape": [{"dim": [{"size": "4"}]}]}}, "dtype": {"type": "DT_INT32"}}}, {"name": "__inference___call___1927/Const_13", "op": "Const", "attr": {"value": {"tensor": {"dtype": "DT_INT32", "tensorShape": {"dim": [{"size": "4"}, {"size": "2"}]}}}, "_output_shapes": {"list": {"shape": [{"dim": [{"size": "4"}, {"size": "2"}]}]}}, "dtype": {"type": "DT_INT32"}}}, {"name": "__inference___call___1927/transpose_184/perm", "op": "Const", "attr": {"_output_shapes": {"list": {"shape": [{"dim": [{"size": "4"}]}]}}, "value": {"tensor": {"dtype": "DT_INT32", "tensorShape": {"dim": [{"size": "4"}]}}}, "dtype": {"type": "DT_INT32"}}}, {"name": "__inference___call___1927/transpose_183/perm", "op": "Const", "attr": {"value": {"tensor": {"dtype": "DT_INT32", "tensorShape": {"dim": [{"size": "4"}]}}}, "dtype": {"type": "DT_INT32"}, "_output_shapes": {"list": {"shape": [{"dim": [{"size": "4"}]}]}}}}, {"name": "__inference___call___1927/Reshape_12/shape", "op": "Const", "attr": {"_output_shapes": {"list": {"shape": [{"dim": [{"size": "4"}]}]}}, "dtype": {"type": "DT_INT32"}, "value": {"tensor": {"dtype": "DT_INT32", "tensorShape": {"dim": [{"size": "4"}]}}}}}, {"name": "__inference___call___1927/transpose_185/perm", "op": "Const", "attr": {"_output_shapes": {"list": {"shape": [{"dim": [{"size": "4"}]}]}}, "value": {"tensor": {"dtype": "DT_INT32", "tensorShape": {"dim": [{"size": "4"}]}}}, "dtype": {"type": "DT_INT32"}}}, {"name": "__inference___call___1927/transpose_193/perm", "op": "Const", "attr": {"value": {"tensor": {"dtype": "DT_INT32", "tensorShape": {"dim": [{"size": "4"}]}}}, "dtype": {"type": "DT_INT32"}, "_output_shapes": {"list": {"shape": [{"dim": [{"size": "4"}]}]}}}}, {"name": "__inference___call___1927/transpose_192/perm", "op": "Const", "attr": {"dtype": {"type": "DT_INT32"}, "value": {"tensor": {"dtype": "DT_INT32", "tensorShape": {"dim": [{"size": "4"}]}}}, "_output_shapes": {"list": {"shape": [{"dim": [{"size": "4"}]}]}}}}, {"name": "__inference___call___1927/transpose_194/perm", "op": "Const", "attr": {"_output_shapes": {"list": {"shape": [{"dim": [{"size": "4"}]}]}}, "dtype": {"type": "DT_INT32"}, "value": {"tensor": {"dtype": "DT_INT32", "tensorShape": {"dim": [{"size": "4"}]}}}}}, {"name": "__inference___call___1927/ConstantFolding/split_56-folded-1", "op": "Const", "attr": {"value": {"tensor": {"dtype": "DT_INT32", "tensorShape": {"dim": [{"size": "2"}]}}}, "dtype": {"type": "DT_INT32"}}}, {"name": "__inference___call___1927/transpose_172/perm", "op": "Const", "attr": {"dtype": {"type": "DT_INT32"}, "_output_shapes": {"list": {"shape": [{"dim": [{"size": "4"}]}]}}, "value": {"tensor": {"dtype": "DT_INT32", "tensorShape": {"dim": [{"size": "4"}]}}}}}, {"name": "__inference___call___1927/transpose_171/perm", "op": "Const", "attr": {"value": {"tensor": {"dtype": "DT_INT32", "tensorShape": {"dim": [{"size": "4"}]}}}, "_output_shapes": {"list": {"shape": [{"dim": [{"size": "4"}]}]}}, "dtype": {"type": "DT_INT32"}}}, {"name": "__inference___call___1927/transpose_173/perm", "op": "Const", "attr": {"_output_shapes": {"list": {"shape": [{"dim": [{"size": "4"}]}]}}, "value": {"tensor": {"dtype": "DT_INT32", "tensorShape": {"dim": [{"size": "4"}]}}}, "dtype": {"type": "DT_INT32"}}}, {"name": "__inference___call___1927/transpose_175/perm", "op": "Const", "attr": {"value": {"tensor": {"dtype": "DT_INT32", "tensorShape": {"dim": [{"size": "4"}]}}}, "dtype": {"type": "DT_INT32"}, "_output_shapes": {"list": {"shape": [{"dim": [{"size": "4"}]}]}}}}, {"name": "__inference___call___1927/transpose_174/perm", "op": "Const", "attr": {"value": {"tensor": {"dtype": "DT_INT32", "tensorShape": {"dim": [{"size": "4"}]}}}, "dtype": {"type": "DT_INT32"}, "_output_shapes": {"list": {"shape": [{"dim": [{"size": "4"}]}]}}}}, {"name": "__inference___call___1927/transpose_176/perm", "op": "Const", "attr": {"dtype": {"type": "DT_INT32"}, "_output_shapes": {"list": {"shape": [{"dim": [{"size": "4"}]}]}}, "value": {"tensor": {"dtype": "DT_INT32", "tensorShape": {"dim": [{"size": "4"}]}}}}}, {"name": "__inference___call___1927/ConstantFolding/split_51-folded-1", "op": "Const", "attr": {"value": {"tensor": {"dtype": "DT_INT32", "tensorShape": {"dim": [{"size": "2"}]}}}, "dtype": {"type": "DT_INT32"}}}, {"name": "__inference___call___1927/transpose_157/perm", "op": "Const", "attr": {"dtype": {"type": "DT_INT32"}, "_output_shapes": {"list": {"shape": [{"dim": [{"size": "4"}]}]}}, "value": {"tensor": {"dtype": "DT_INT32", "tensorShape": {"dim": [{"size": "4"}]}}}}}, {"name": "__inference___call___1927/transpose_156/perm", "op": "Const", "attr": {"value": {"tensor": {"dtype": "DT_INT32", "tensorShape": {"dim": [{"size": "4"}]}}}, "dtype": {"type": "DT_INT32"}, "_output_shapes": {"list": {"shape": [{"dim": [{"size": "4"}]}]}}}}, {"name": "__inference___call___1927/transpose_158/perm", "op": "Const", "attr": {"dtype": {"type": "DT_INT32"}, "_output_shapes": {"list": {"shape": [{"dim": [{"size": "4"}]}]}}, "value": {"tensor": {"dtype": "DT_INT32", "tensorShape": {"dim": [{"size": "4"}]}}}}}, {"name": "__inference___call___1927/transpose_160/perm", "op": "Const", "attr": {"dtype": {"type": "DT_INT32"}, "_output_shapes": {"list": {"shape": [{"dim": [{"size": "4"}]}]}}, "value": {"tensor": {"dtype": "DT_INT32", "tensorShape": {"dim": [{"size": "4"}]}}}}}, {"name": "__inference___call___1927/transpose_159/perm", "op": "Const", "attr": {"dtype": {"type": "DT_INT32"}, "_output_shapes": {"list": {"shape": [{"dim": [{"size": "4"}]}]}}, "value": {"tensor": {"dtype": "DT_INT32", "tensorShape": {"dim": [{"size": "4"}]}}}}}, {"name": "__inference___call___1927/transpose_161/perm", "op": "Const", "attr": {"dtype": {"type": "DT_INT32"}, "_output_shapes": {"list": {"shape": [{"dim": [{"size": "4"}]}]}}, "value": {"tensor": {"dtype": "DT_INT32", "tensorShape": {"dim": [{"size": "4"}]}}}}}, {"name": "__inference___call___1927/transpose_151/perm", "op": "Const", "attr": {"value": {"tensor": {"dtype": "DT_INT32", "tensorShape": {"dim": [{"size": "4"}]}}}, "dtype": {"type": "DT_INT32"}, "_output_shapes": {"list": {"shape": [{"dim": [{"size": "4"}]}]}}}}, {"name": "__inference___call___1927/transpose_150/perm", "op": "Const", "attr": {"dtype": {"type": "DT_INT32"}, "_output_shapes": {"list": {"shape": [{"dim": [{"size": "4"}]}]}}, "value": {"tensor": {"dtype": "DT_INT32", "tensorShape": {"dim": [{"size": "4"}]}}}}}, {"name": "__inference___call___1927/transpose_152/perm", "op": "Const", "attr": {"dtype": {"type": "DT_INT32"}, "_output_shapes": {"list": {"shape": [{"dim": [{"size": "4"}]}]}}, "value": {"tensor": {"dtype": "DT_INT32", "tensorShape": {"dim": [{"size": "4"}]}}}}}, {"name": "__inference___call___1927/Const_11", "op": "Const", "attr": {"_output_shapes": {"list": {"shape": [{"dim": [{"size": "4"}, {"size": "2"}]}]}}, "value": {"tensor": {"dtype": "DT_INT32", "tensorShape": {"dim": [{"size": "4"}, {"size": "2"}]}}}, "dtype": {"type": "DT_INT32"}}}, {"name": "__inference___call___1927/transpose_154/perm", "op": "Const", "attr": {"value": {"tensor": {"dtype": "DT_INT32", "tensorShape": {"dim": [{"size": "4"}]}}}, "dtype": {"type": "DT_INT32"}, "_output_shapes": {"list": {"shape": [{"dim": [{"size": "4"}]}]}}}}, {"name": "__inference___call___1927/transpose_153/perm", "op": "Const", "attr": {"_output_shapes": {"list": {"shape": [{"dim": [{"size": "4"}]}]}}, "value": {"tensor": {"dtype": "DT_INT32", "tensorShape": {"dim": [{"size": "4"}]}}}, "dtype": {"type": "DT_INT32"}}}, {"name": "__inference___call___1927/Reshape_10/shape", "op": "Const", "attr": {"dtype": {"type": "DT_INT32"}, "_output_shapes": {"list": {"shape": [{"dim": [{"size": "4"}]}]}}, "value": {"tensor": {"dtype": "DT_INT32", "tensorShape": {"dim": [{"size": "4"}]}}}}}, {"name": "__inference___call___1927/transpose_155/perm", "op": "Const", "attr": {"dtype": {"type": "DT_INT32"}, "_output_shapes": {"list": {"shape": [{"dim": [{"size": "4"}]}]}}, "value": {"tensor": {"dtype": "DT_INT32", "tensorShape": {"dim": [{"size": "4"}]}}}}}, {"name": "__inference___call___1927/transpose_163/perm", "op": "Const", "attr": {"value": {"tensor": {"dtype": "DT_INT32", "tensorShape": {"dim": [{"size": "4"}]}}}, "_output_shapes": {"list": {"shape": [{"dim": [{"size": "4"}]}]}}, "dtype": {"type": "DT_INT32"}}}, {"name": "__inference___call___1927/transpose_162/perm", "op": "Const", "attr": {"_output_shapes": {"list": {"shape": [{"dim": [{"size": "4"}]}]}}, "dtype": {"type": "DT_INT32"}, "value": {"tensor": {"dtype": "DT_INT32", "tensorShape": {"dim": [{"size": "4"}]}}}}}, {"name": "__inference___call___1927/transpose_164/perm", "op": "Const", "attr": {"value": {"tensor": {"dtype": "DT_INT32", "tensorShape": {"dim": [{"size": "4"}]}}}, "dtype": {"type": "DT_INT32"}, "_output_shapes": {"list": {"shape": [{"dim": [{"size": "4"}]}]}}}}, {"name": "__inference___call___1927/ConstantFolding/split_46-folded-1", "op": "Const", "attr": {"value": {"tensor": {"dtype": "DT_INT32", "tensorShape": {"dim": [{"size": "2"}]}}}, "dtype": {"type": "DT_INT32"}}}, {"name": "__inference___call___1927/transpose_142/perm", "op": "Const", "attr": {"dtype": {"type": "DT_INT32"}, "_output_shapes": {"list": {"shape": [{"dim": [{"size": "4"}]}]}}, "value": {"tensor": {"dtype": "DT_INT32", "tensorShape": {"dim": [{"size": "4"}]}}}}}, {"name": "__inference___call___1927/transpose_141/perm", "op": "Const", "attr": {"_output_shapes": {"list": {"shape": [{"dim": [{"size": "4"}]}]}}, "value": {"tensor": {"dtype": "DT_INT32", "tensorShape": {"dim": [{"size": "4"}]}}}, "dtype": {"type": "DT_INT32"}}}, {"name": "__inference___call___1927/transpose_143/perm", "op": "Const", "attr": {"value": {"tensor": {"dtype": "DT_INT32", "tensorShape": {"dim": [{"size": "4"}]}}}, "dtype": {"type": "DT_INT32"}, "_output_shapes": {"list": {"shape": [{"dim": [{"size": "4"}]}]}}}}, {"name": "__inference___call___1927/transpose_145/perm", "op": "Const", "attr": {"value": {"tensor": {"dtype": "DT_INT32", "tensorShape": {"dim": [{"size": "4"}]}}}, "_output_shapes": {"list": {"shape": [{"dim": [{"size": "4"}]}]}}, "dtype": {"type": "DT_INT32"}}}, {"name": "__inference___call___1927/transpose_144/perm", "op": "Const", "attr": {"value": {"tensor": {"dtype": "DT_INT32", "tensorShape": {"dim": [{"size": "4"}]}}}, "dtype": {"type": "DT_INT32"}, "_output_shapes": {"list": {"shape": [{"dim": [{"size": "4"}]}]}}}}, {"name": "__inference___call___1927/transpose_146/perm", "op": "Const", "attr": {"value": {"tensor": {"dtype": "DT_INT32", "tensorShape": {"dim": [{"size": "4"}]}}}, "_output_shapes": {"list": {"shape": [{"dim": [{"size": "4"}]}]}}, "dtype": {"type": "DT_INT32"}}}, {"name": "__inference___call___1927/transpose_135/perm", "op": "Const", "attr": {"value": {"tensor": {"dtype": "DT_INT32", "tensorShape": {"dim": [{"size": "4"}]}}}, "dtype": {"type": "DT_INT32"}, "_output_shapes": {"list": {"shape": [{"dim": [{"size": "4"}]}]}}}}, {"name": "__inference___call___1927/transpose_137/perm", "op": "Const", "attr": {"dtype": {"type": "DT_INT32"}, "value": {"tensor": {"dtype": "DT_INT32", "tensorShape": {"dim": [{"size": "4"}]}}}, "_output_shapes": {"list": {"shape": [{"dim": [{"size": "4"}]}]}}}}, {"name": "__inference___call___1927/Const_10", "op": "Const", "attr": {"value": {"tensor": {"dtype": "DT_INT32", "tensorShape": {"dim": [{"size": "4"}, {"size": "2"}]}}}, "dtype": {"type": "DT_INT32"}, "_output_shapes": {"list": {"shape": [{"dim": [{"size": "4"}, {"size": "2"}]}]}}}}, {"name": "__inference___call___1927/transpose_139/perm", "op": "Const", "attr": {"value": {"tensor": {"dtype": "DT_INT32", "tensorShape": {"dim": [{"size": "4"}]}}}, "_output_shapes": {"list": {"shape": [{"dim": [{"size": "4"}]}]}}, "dtype": {"type": "DT_INT32"}}}, {"name": "__inference___call___1927/transpose_138/perm", "op": "Const", "attr": {"dtype": {"type": "DT_INT32"}, "_output_shapes": {"list": {"shape": [{"dim": [{"size": "4"}]}]}}, "value": {"tensor": {"dtype": "DT_INT32", "tensorShape": {"dim": [{"size": "4"}]}}}}}, {"name": "__inference___call___1927/Reshape_9/shape", "op": "Const", "attr": {"value": {"tensor": {"dtype": "DT_INT32", "tensorShape": {"dim": [{"size": "4"}]}}}, "dtype": {"type": "DT_INT32"}, "_output_shapes": {"list": {"shape": [{"dim": [{"size": "4"}]}]}}}}, {"name": "__inference___call___1927/transpose_140/perm", "op": "Const", "attr": {"dtype": {"type": "DT_INT32"}, "_output_shapes": {"list": {"shape": [{"dim": [{"size": "4"}]}]}}, "value": {"tensor": {"dtype": "DT_INT32", "tensorShape": {"dim": [{"size": "4"}]}}}}}, {"name": "__inference___call___1927/transpose_148/perm", "op": "Const", "attr": {"_output_shapes": {"list": {"shape": [{"dim": [{"size": "4"}]}]}}, "value": {"tensor": {"dtype": "DT_INT32", "tensorShape": {"dim": [{"size": "4"}]}}}, "dtype": {"type": "DT_INT32"}}}, {"name": "__inference___call___1927/transpose_147/perm", "op": "Const", "attr": {"_output_shapes": {"list": {"shape": [{"dim": [{"size": "4"}]}]}}, "dtype": {"type": "DT_INT32"}, "value": {"tensor": {"dtype": "DT_INT32", "tensorShape": {"dim": [{"size": "4"}]}}}}}, {"name": "__inference___call___1927/transpose_149/perm", "op": "Const", "attr": {"_output_shapes": {"list": {"shape": [{"dim": [{"size": "4"}]}]}}, "value": {"tensor": {"dtype": "DT_INT32", "tensorShape": {"dim": [{"size": "4"}]}}}, "dtype": {"type": "DT_INT32"}}}, {"name": "__inference___call___1927/ConstantFolding/split_41-folded-1", "op": "Const", "attr": {"dtype": {"type": "DT_INT32"}, "value": {"tensor": {"dtype": "DT_INT32", "tensorShape": {"dim": [{"size": "2"}]}}}}}, {"name": "__inference___call___1927/transpose_127/perm", "op": "Const", "attr": {"_output_shapes": {"list": {"shape": [{"dim": [{"size": "4"}]}]}}, "value": {"tensor": {"dtype": "DT_INT32", "tensorShape": {"dim": [{"size": "4"}]}}}, "dtype": {"type": "DT_INT32"}}}, {"name": "__inference___call___1927/transpose_126/perm", "op": "Const", "attr": {"dtype": {"type": "DT_INT32"}, "_output_shapes": {"list": {"shape": [{"dim": [{"size": "4"}]}]}}, "value": {"tensor": {"dtype": "DT_INT32", "tensorShape": {"dim": [{"size": "4"}]}}}}}, {"name": "__inference___call___1927/transpose_128/perm", "op": "Const", "attr": {"dtype": {"type": "DT_INT32"}, "_output_shapes": {"list": {"shape": [{"dim": [{"size": "4"}]}]}}, "value": {"tensor": {"dtype": "DT_INT32", "tensorShape": {"dim": [{"size": "4"}]}}}}}, {"name": "__inference___call___1927/transpose_130/perm", "op": "Const", "attr": {"dtype": {"type": "DT_INT32"}, "_output_shapes": {"list": {"shape": [{"dim": [{"size": "4"}]}]}}, "value": {"tensor": {"dtype": "DT_INT32", "tensorShape": {"dim": [{"size": "4"}]}}}}}, {"name": "__inference___call___1927/transpose_129/perm", "op": "Const", "attr": {"dtype": {"type": "DT_INT32"}, "_output_shapes": {"list": {"shape": [{"dim": [{"size": "4"}]}]}}, "value": {"tensor": {"dtype": "DT_INT32", "tensorShape": {"dim": [{"size": "4"}]}}}}}, {"name": "__inference___call___1927/transpose_131/perm", "op": "Const", "attr": {"dtype": {"type": "DT_INT32"}, "_output_shapes": {"list": {"shape": [{"dim": [{"size": "4"}]}]}}, "value": {"tensor": {"dtype": "DT_INT32", "tensorShape": {"dim": [{"size": "4"}]}}}}}, {"name": "__inference___call___1927/ConstantFolding/split_36-folded-1", "op": "Const", "attr": {"dtype": {"type": "DT_INT32"}, "value": {"tensor": {"dtype": "DT_INT32", "tensorShape": {"dim": [{"size": "2"}]}}}}}, {"name": "__inference___call___1927/transpose_112/perm", "op": "Const", "attr": {"value": {"tensor": {"dtype": "DT_INT32", "tensorShape": {"dim": [{"size": "4"}]}}}, "_output_shapes": {"list": {"shape": [{"dim": [{"size": "4"}]}]}}, "dtype": {"type": "DT_INT32"}}}, {"name": "__inference___call___1927/transpose_111/perm", "op": "Const", "attr": {"dtype": {"type": "DT_INT32"}, "value": {"tensor": {"dtype": "DT_INT32", "tensorShape": {"dim": [{"size": "4"}]}}}, "_output_shapes": {"list": {"shape": [{"dim": [{"size": "4"}]}]}}}}, {"name": "__inference___call___1927/transpose_113/perm", "op": "Const", "attr": {"dtype": {"type": "DT_INT32"}, "value": {"tensor": {"dtype": "DT_INT32", "tensorShape": {"dim": [{"size": "4"}]}}}, "_output_shapes": {"list": {"shape": [{"dim": [{"size": "4"}]}]}}}}, {"name": "__inference___call___1927/transpose_115/perm", "op": "Const", "attr": {"value": {"tensor": {"dtype": "DT_INT32", "tensorShape": {"dim": [{"size": "4"}]}}}, "_output_shapes": {"list": {"shape": [{"dim": [{"size": "4"}]}]}}, "dtype": {"type": "DT_INT32"}}}, {"name": "__inference___call___1927/transpose_114/perm", "op": "Const", "attr": {"value": {"tensor": {"dtype": "DT_INT32", "tensorShape": {"dim": [{"size": "4"}]}}}, "dtype": {"type": "DT_INT32"}, "_output_shapes": {"list": {"shape": [{"dim": [{"size": "4"}]}]}}}}, {"name": "__inference___call___1927/transpose_116/perm", "op": "Const", "attr": {"value": {"tensor": {"dtype": "DT_INT32", "tensorShape": {"dim": [{"size": "4"}]}}}, "dtype": {"type": "DT_INT32"}, "_output_shapes": {"list": {"shape": [{"dim": [{"size": "4"}]}]}}}}, {"name": "__inference___call___1927/transpose_106/perm", "op": "Const", "attr": {"dtype": {"type": "DT_INT32"}, "value": {"tensor": {"dtype": "DT_INT32", "tensorShape": {"dim": [{"size": "4"}]}}}, "_output_shapes": {"list": {"shape": [{"dim": [{"size": "4"}]}]}}}}, {"name": "__inference___call___1927/transpose_105/perm", "op": "Const", "attr": {"dtype": {"type": "DT_INT32"}, "value": {"tensor": {"dtype": "DT_INT32", "tensorShape": {"dim": [{"size": "4"}]}}}, "_output_shapes": {"list": {"shape": [{"dim": [{"size": "4"}]}]}}}}, {"name": "__inference___call___1927/transpose_107/perm", "op": "Const", "attr": {"value": {"tensor": {"dtype": "DT_INT32", "tensorShape": {"dim": [{"size": "4"}]}}}, "_output_shapes": {"list": {"shape": [{"dim": [{"size": "4"}]}]}}, "dtype": {"type": "DT_INT32"}}}, {"name": "__inference___call___1927/Const_8", "op": "Const", "attr": {"value": {"tensor": {"dtype": "DT_INT32", "tensorShape": {"dim": [{"size": "4"}, {"size": "2"}]}}}, "_output_shapes": {"list": {"shape": [{"dim": [{"size": "4"}, {"size": "2"}]}]}}, "dtype": {"type": "DT_INT32"}}}, {"name": "__inference___call___1927/transpose_109/perm", "op": "Const", "attr": {"_output_shapes": {"list": {"shape": [{"dim": [{"size": "4"}]}]}}, "dtype": {"type": "DT_INT32"}, "value": {"tensor": {"dtype": "DT_INT32", "tensorShape": {"dim": [{"size": "4"}]}}}}}, {"name": "__inference___call___1927/transpose_108/perm", "op": "Const", "attr": {"value": {"tensor": {"dtype": "DT_INT32", "tensorShape": {"dim": [{"size": "4"}]}}}, "dtype": {"type": "DT_INT32"}, "_output_shapes": {"list": {"shape": [{"dim": [{"size": "4"}]}]}}}}, {"name": "__inference___call___1927/Reshape_7/shape", "op": "Const", "attr": {"_output_shapes": {"list": {"shape": [{"dim": [{"size": "4"}]}]}}, "dtype": {"type": "DT_INT32"}, "value": {"tensor": {"dtype": "DT_INT32", "tensorShape": {"dim": [{"size": "4"}]}}}}}, {"name": "__inference___call___1927/transpose_110/perm", "op": "Const", "attr": {"value": {"tensor": {"dtype": "DT_INT32", "tensorShape": {"dim": [{"size": "4"}]}}}, "dtype": {"type": "DT_INT32"}, "_output_shapes": {"list": {"shape": [{"dim": [{"size": "4"}]}]}}}}, {"name": "__inference___call___1927/transpose_118/perm", "op": "Const", "attr": {"dtype": {"type": "DT_INT32"}, "_output_shapes": {"list": {"shape": [{"dim": [{"size": "4"}]}]}}, "value": {"tensor": {"dtype": "DT_INT32", "tensorShape": {"dim": [{"size": "4"}]}}}}}, {"name": "__inference___call___1927/transpose_117/perm", "op": "Const", "attr": {"value": {"tensor": {"dtype": "DT_INT32", "tensorShape": {"dim": [{"size": "4"}]}}}, "_output_shapes": {"list": {"shape": [{"dim": [{"size": "4"}]}]}}, "dtype": {"type": "DT_INT32"}}}, {"name": "__inference___call___1927/transpose_119/perm", "op": "Const", "attr": {"value": {"tensor": {"dtype": "DT_INT32", "tensorShape": {"dim": [{"size": "4"}]}}}, "dtype": {"type": "DT_INT32"}, "_output_shapes": {"list": {"shape": [{"dim": [{"size": "4"}]}]}}}}, {"name": "__inference___call___1927/ConstantFolding/split_31-folded-1", "op": "Const", "attr": {"value": {"tensor": {"dtype": "DT_INT32", "tensorShape": {"dim": [{"size": "2"}]}}}, "dtype": {"type": "DT_INT32"}}}, {"name": "__inference___call___1927/transpose_97/perm", "op": "Const", "attr": {"dtype": {"type": "DT_INT32"}, "_output_shapes": {"list": {"shape": [{"dim": [{"size": "4"}]}]}}, "value": {"tensor": {"dtype": "DT_INT32", "tensorShape": {"dim": [{"size": "4"}]}}}}}, {"name": "__inference___call___1927/transpose_96/perm", "op": "Const", "attr": {"dtype": {"type": "DT_INT32"}, "_output_shapes": {"list": {"shape": [{"dim": [{"size": "4"}]}]}}, "value": {"tensor": {"dtype": "DT_INT32", "tensorShape": {"dim": [{"size": "4"}]}}}}}, {"name": "__inference___call___1927/transpose_98/perm", "op": "Const", "attr": {"value": {"tensor": {"dtype": "DT_INT32", "tensorShape": {"dim": [{"size": "4"}]}}}, "dtype": {"type": "DT_INT32"}, "_output_shapes": {"list": {"shape": [{"dim": [{"size": "4"}]}]}}}}, {"name": "__inference___call___1927/transpose_100/perm", "op": "Const", "attr": {"dtype": {"type": "DT_INT32"}, "_output_shapes": {"list": {"shape": [{"dim": [{"size": "4"}]}]}}, "value": {"tensor": {"dtype": "DT_INT32", "tensorShape": {"dim": [{"size": "4"}]}}}}}, {"name": "__inference___call___1927/transpose_99/perm", "op": "Const", "attr": {"dtype": {"type": "DT_INT32"}, "value": {"tensor": {"dtype": "DT_INT32", "tensorShape": {"dim": [{"size": "4"}]}}}, "_output_shapes": {"list": {"shape": [{"dim": [{"size": "4"}]}]}}}}, {"name": "__inference___call___1927/transpose_101/perm", "op": "Const", "attr": {"dtype": {"type": "DT_INT32"}, "value": {"tensor": {"dtype": "DT_INT32", "tensorShape": {"dim": [{"size": "4"}]}}}, "_output_shapes": {"list": {"shape": [{"dim": [{"size": "4"}]}]}}}}, {"name": "__inference___call___1927/transpose_90/perm", "op": "Const", "attr": {"dtype": {"type": "DT_INT32"}, "_output_shapes": {"list": {"shape": [{"dim": [{"size": "4"}]}]}}, "value": {"tensor": {"dtype": "DT_INT32", "tensorShape": {"dim": [{"size": "4"}]}}}}}, {"name": "__inference___call___1927/transpose_92/perm", "op": "Const", "attr": {"dtype": {"type": "DT_INT32"}, "_output_shapes": {"list": {"shape": [{"dim": [{"size": "4"}]}]}}, "value": {"tensor": {"dtype": "DT_INT32", "tensorShape": {"dim": [{"size": "4"}]}}}}}, {"name": "__inference___call___1927/Const_7", "op": "Const", "attr": {"dtype": {"type": "DT_INT32"}, "value": {"tensor": {"dtype": "DT_INT32", "tensorShape": {"dim": [{"size": "4"}, {"size": "2"}]}}}, "_output_shapes": {"list": {"shape": [{"dim": [{"size": "4"}, {"size": "2"}]}]}}}}, {"name": "__inference___call___1927/transpose_94/perm", "op": "Const", "attr": {"dtype": {"type": "DT_INT32"}, "_output_shapes": {"list": {"shape": [{"dim": [{"size": "4"}]}]}}, "value": {"tensor": {"dtype": "DT_INT32", "tensorShape": {"dim": [{"size": "4"}]}}}}}, {"name": "__inference___call___1927/transpose_93/perm", "op": "Const", "attr": {"value": {"tensor": {"dtype": "DT_INT32", "tensorShape": {"dim": [{"size": "4"}]}}}, "dtype": {"type": "DT_INT32"}, "_output_shapes": {"list": {"shape": [{"dim": [{"size": "4"}]}]}}}}, {"name": "__inference___call___1927/Reshape_6/shape", "op": "Const", "attr": {"dtype": {"type": "DT_INT32"}, "_output_shapes": {"list": {"shape": [{"dim": [{"size": "4"}]}]}}, "value": {"tensor": {"dtype": "DT_INT32", "tensorShape": {"dim": [{"size": "4"}]}}}}}, {"name": "__inference___call___1927/transpose_95/perm", "op": "Const", "attr": {"value": {"tensor": {"dtype": "DT_INT32", "tensorShape": {"dim": [{"size": "4"}]}}}, "dtype": {"type": "DT_INT32"}, "_output_shapes": {"list": {"shape": [{"dim": [{"size": "4"}]}]}}}}, {"name": "__inference___call___1927/transpose_103/perm", "op": "Const", "attr": {"_output_shapes": {"list": {"shape": [{"dim": [{"size": "4"}]}]}}, "dtype": {"type": "DT_INT32"}, "value": {"tensor": {"dtype": "DT_INT32", "tensorShape": {"dim": [{"size": "4"}]}}}}}, {"name": "__inference___call___1927/transpose_102/perm", "op": "Const", "attr": {"dtype": {"type": "DT_INT32"}, "_output_shapes": {"list": {"shape": [{"dim": [{"size": "4"}]}]}}, "value": {"tensor": {"dtype": "DT_INT32", "tensorShape": {"dim": [{"size": "4"}]}}}}}, {"name": "__inference___call___1927/transpose_104/perm", "op": "Const", "attr": {"_output_shapes": {"list": {"shape": [{"dim": [{"size": "4"}]}]}}, "value": {"tensor": {"dtype": "DT_INT32", "tensorShape": {"dim": [{"size": "4"}]}}}, "dtype": {"type": "DT_INT32"}}}, {"name": "__inference___call___1927/ConstantFolding/split_26-folded-1", "op": "Const", "attr": {"dtype": {"type": "DT_INT32"}, "value": {"tensor": {"dtype": "DT_INT32", "tensorShape": {"dim": [{"size": "2"}]}}}}}, {"name": "__inference___call___1927/transpose_82/perm", "op": "Const", "attr": {"dtype": {"type": "DT_INT32"}, "_output_shapes": {"list": {"shape": [{"dim": [{"size": "4"}]}]}}, "value": {"tensor": {"dtype": "DT_INT32", "tensorShape": {"dim": [{"size": "4"}]}}}}}, {"name": "__inference___call___1927/transpose_81/perm", "op": "Const", "attr": {"_output_shapes": {"list": {"shape": [{"dim": [{"size": "4"}]}]}}, "value": {"tensor": {"dtype": "DT_INT32", "tensorShape": {"dim": [{"size": "4"}]}}}, "dtype": {"type": "DT_INT32"}}}, {"name": "__inference___call___1927/transpose_83/perm", "op": "Const", "attr": {"value": {"tensor": {"dtype": "DT_INT32", "tensorShape": {"dim": [{"size": "4"}]}}}, "dtype": {"type": "DT_INT32"}, "_output_shapes": {"list": {"shape": [{"dim": [{"size": "4"}]}]}}}}, {"name": "__inference___call___1927/transpose_85/perm", "op": "Const", "attr": {"value": {"tensor": {"dtype": "DT_INT32", "tensorShape": {"dim": [{"size": "4"}]}}}, "dtype": {"type": "DT_INT32"}, "_output_shapes": {"list": {"shape": [{"dim": [{"size": "4"}]}]}}}}, {"name": "__inference___call___1927/transpose_84/perm", "op": "Const", "attr": {"value": {"tensor": {"dtype": "DT_INT32", "tensorShape": {"dim": [{"size": "4"}]}}}, "dtype": {"type": "DT_INT32"}, "_output_shapes": {"list": {"shape": [{"dim": [{"size": "4"}]}]}}}}, {"name": "__inference___call___1927/transpose_86/perm", "op": "Const", "attr": {"dtype": {"type": "DT_INT32"}, "_output_shapes": {"list": {"shape": [{"dim": [{"size": "4"}]}]}}, "value": {"tensor": {"dtype": "DT_INT32", "tensorShape": {"dim": [{"size": "4"}]}}}}}, {"name": "__inference___call___1927/ConstantFolding/split_21-folded-1", "op": "Const", "attr": {"dtype": {"type": "DT_INT32"}, "value": {"tensor": {"dtype": "DT_INT32", "tensorShape": {"dim": [{"size": "2"}]}}}}}, {"name": "__inference___call___1927/transpose_67/perm", "op": "Const", "attr": {"value": {"tensor": {"dtype": "DT_INT32", "tensorShape": {"dim": [{"size": "4"}]}}}, "_output_shapes": {"list": {"shape": [{"dim": [{"size": "4"}]}]}}, "dtype": {"type": "DT_INT32"}}}, {"name": "__inference___call___1927/transpose_66/perm", "op": "Const", "attr": {"dtype": {"type": "DT_INT32"}, "value": {"tensor": {"dtype": "DT_INT32", "tensorShape": {"dim": [{"size": "4"}]}}}, "_output_shapes": {"list": {"shape": [{"dim": [{"size": "4"}]}]}}}}, {"name": "__inference___call___1927/transpose_68/perm", "op": "Const", "attr": {"value": {"tensor": {"dtype": "DT_INT32", "tensorShape": {"dim": [{"size": "4"}]}}}, "_output_shapes": {"list": {"shape": [{"dim": [{"size": "4"}]}]}}, "dtype": {"type": "DT_INT32"}}}, {"name": "__inference___call___1927/transpose_70/perm", "op": "Const", "attr": {"value": {"tensor": {"dtype": "DT_INT32", "tensorShape": {"dim": [{"size": "4"}]}}}, "_output_shapes": {"list": {"shape": [{"dim": [{"size": "4"}]}]}}, "dtype": {"type": "DT_INT32"}}}, {"name": "__inference___call___1927/transpose_69/perm", "op": "Const", "attr": {"value": {"tensor": {"dtype": "DT_INT32", "tensorShape": {"dim": [{"size": "4"}]}}}, "_output_shapes": {"list": {"shape": [{"dim": [{"size": "4"}]}]}}, "dtype": {"type": "DT_INT32"}}}, {"name": "__inference___call___1927/transpose_71/perm", "op": "Const", "attr": {"dtype": {"type": "DT_INT32"}, "_output_shapes": {"list": {"shape": [{"dim": [{"size": "4"}]}]}}, "value": {"tensor": {"dtype": "DT_INT32", "tensorShape": {"dim": [{"size": "4"}]}}}}}, {"name": "__inference___call___1927/transpose_60/perm", "op": "Const", "attr": {"value": {"tensor": {"dtype": "DT_INT32", "tensorShape": {"dim": [{"size": "4"}]}}}, "_output_shapes": {"list": {"shape": [{"dim": [{"size": "4"}]}]}}, "dtype": {"type": "DT_INT32"}}}, {"name": "__inference___call___1927/transpose_62/perm", "op": "Const", "attr": {"dtype": {"type": "DT_INT32"}, "value": {"tensor": {"dtype": "DT_INT32", "tensorShape": {"dim": [{"size": "4"}]}}}, "_output_shapes": {"list": {"shape": [{"dim": [{"size": "4"}]}]}}}}, {"name": "__inference___call___1927/Const_5", "op": "Const", "attr": {"value": {"tensor": {"dtype": "DT_INT32", "tensorShape": {"dim": [{"size": "4"}, {"size": "2"}]}}}, "_output_shapes": {"list": {"shape": [{"dim": [{"size": "4"}, {"size": "2"}]}]}}, "dtype": {"type": "DT_INT32"}}}, {"name": "__inference___call___1927/transpose_64/perm", "op": "Const", "attr": {"value": {"tensor": {"dtype": "DT_INT32", "tensorShape": {"dim": [{"size": "4"}]}}}, "_output_shapes": {"list": {"shape": [{"dim": [{"size": "4"}]}]}}, "dtype": {"type": "DT_INT32"}}}, {"name": "__inference___call___1927/transpose_63/perm", "op": "Const", "attr": {"dtype": {"type": "DT_INT32"}, "_output_shapes": {"list": {"shape": [{"dim": [{"size": "4"}]}]}}, "value": {"tensor": {"dtype": "DT_INT32", "tensorShape": {"dim": [{"size": "4"}]}}}}}, {"name": "__inference___call___1927/Reshape_4/shape", "op": "Const", "attr": {"dtype": {"type": "DT_INT32"}, "value": {"tensor": {"dtype": "DT_INT32", "tensorShape": {"dim": [{"size": "4"}]}}}, "_output_shapes": {"list": {"shape": [{"dim": [{"size": "4"}]}]}}}}, {"name": "__inference___call___1927/transpose_65/perm", "op": "Const", "attr": {"_output_shapes": {"list": {"shape": [{"dim": [{"size": "4"}]}]}}, "dtype": {"type": "DT_INT32"}, "value": {"tensor": {"dtype": "DT_INT32", "tensorShape": {"dim": [{"size": "4"}]}}}}}, {"name": "__inference___call___1927/transpose_73/perm", "op": "Const", "attr": {"value": {"tensor": {"dtype": "DT_INT32", "tensorShape": {"dim": [{"size": "4"}]}}}, "_output_shapes": {"list": {"shape": [{"dim": [{"size": "4"}]}]}}, "dtype": {"type": "DT_INT32"}}}, {"name": "__inference___call___1927/transpose_72/perm", "op": "Const", "attr": {"dtype": {"type": "DT_INT32"}, "_output_shapes": {"list": {"shape": [{"dim": [{"size": "4"}]}]}}, "value": {"tensor": {"dtype": "DT_INT32", "tensorShape": {"dim": [{"size": "4"}]}}}}}, {"name": "__inference___call___1927/transpose_74/perm", "op": "Const", "attr": {"dtype": {"type": "DT_INT32"}, "value": {"tensor": {"dtype": "DT_INT32", "tensorShape": {"dim": [{"size": "4"}]}}}, "_output_shapes": {"list": {"shape": [{"dim": [{"size": "4"}]}]}}}}, {"name": "__inference___call___1927/ConstantFolding/split_16-folded-1", "op": "Const", "attr": {"value": {"tensor": {"dtype": "DT_INT32", "tensorShape": {"dim": [{"size": "2"}]}}}, "dtype": {"type": "DT_INT32"}}}, {"name": "__inference___call___1927/transpose_52/perm", "op": "Const", "attr": {"value": {"tensor": {"dtype": "DT_INT32", "tensorShape": {"dim": [{"size": "4"}]}}}, "_output_shapes": {"list": {"shape": [{"dim": [{"size": "4"}]}]}}, "dtype": {"type": "DT_INT32"}}}, {"name": "__inference___call___1927/transpose_51/perm", "op": "Const", "attr": {"dtype": {"type": "DT_INT32"}, "value": {"tensor": {"dtype": "DT_INT32", "tensorShape": {"dim": [{"size": "4"}]}}}, "_output_shapes": {"list": {"shape": [{"dim": [{"size": "4"}]}]}}}}, {"name": "__inference___call___1927/transpose_53/perm", "op": "Const", "attr": {"value": {"tensor": {"dtype": "DT_INT32", "tensorShape": {"dim": [{"size": "4"}]}}}, "_output_shapes": {"list": {"shape": [{"dim": [{"size": "4"}]}]}}, "dtype": {"type": "DT_INT32"}}}, {"name": "__inference___call___1927/transpose_55/perm", "op": "Const", "attr": {"value": {"tensor": {"dtype": "DT_INT32", "tensorShape": {"dim": [{"size": "4"}]}}}, "_output_shapes": {"list": {"shape": [{"dim": [{"size": "4"}]}]}}, "dtype": {"type": "DT_INT32"}}}, {"name": "__inference___call___1927/transpose_54/perm", "op": "Const", "attr": {"value": {"tensor": {"dtype": "DT_INT32", "tensorShape": {"dim": [{"size": "4"}]}}}, "_output_shapes": {"list": {"shape": [{"dim": [{"size": "4"}]}]}}, "dtype": {"type": "DT_INT32"}}}, {"name": "__inference___call___1927/transpose_56/perm", "op": "Const", "attr": {"dtype": {"type": "DT_INT32"}, "value": {"tensor": {"dtype": "DT_INT32", "tensorShape": {"dim": [{"size": "4"}]}}}, "_output_shapes": {"list": {"shape": [{"dim": [{"size": "4"}]}]}}}}, {"name": "__inference___call___1927/ConstantFolding/split_11-folded-1", "op": "Const", "attr": {"dtype": {"type": "DT_INT32"}, "value": {"tensor": {"dtype": "DT_INT32", "tensorShape": {"dim": [{"size": "2"}]}}}}}, {"name": "__inference___call___1927/transpose_37/perm", "op": "Const", "attr": {"value": {"tensor": {"dtype": "DT_INT32", "tensorShape": {"dim": [{"size": "4"}]}}}, "_output_shapes": {"list": {"shape": [{"dim": [{"size": "4"}]}]}}, "dtype": {"type": "DT_INT32"}}}, {"name": "__inference___call___1927/transpose_36/perm", "op": "Const", "attr": {"value": {"tensor": {"dtype": "DT_INT32", "tensorShape": {"dim": [{"size": "4"}]}}}, "_output_shapes": {"list": {"shape": [{"dim": [{"size": "4"}]}]}}, "dtype": {"type": "DT_INT32"}}}, {"name": "__inference___call___1927/transpose_38/perm", "op": "Const", "attr": {"value": {"tensor": {"dtype": "DT_INT32", "tensorShape": {"dim": [{"size": "4"}]}}}, "_output_shapes": {"list": {"shape": [{"dim": [{"size": "4"}]}]}}, "dtype": {"type": "DT_INT32"}}}, {"name": "__inference___call___1927/transpose_40/perm", "op": "Const", "attr": {"dtype": {"type": "DT_INT32"}, "value": {"tensor": {"dtype": "DT_INT32", "tensorShape": {"dim": [{"size": "4"}]}}}, "_output_shapes": {"list": {"shape": [{"dim": [{"size": "4"}]}]}}}}, {"name": "__inference___call___1927/transpose_39/perm", "op": "Const", "attr": {"value": {"tensor": {"dtype": "DT_INT32", "tensorShape": {"dim": [{"size": "4"}]}}}, "dtype": {"type": "DT_INT32"}, "_output_shapes": {"list": {"shape": [{"dim": [{"size": "4"}]}]}}}}, {"name": "__inference___call___1927/transpose_41/perm", "op": "Const", "attr": {"value": {"tensor": {"dtype": "DT_INT32", "tensorShape": {"dim": [{"size": "4"}]}}}, "_output_shapes": {"list": {"shape": [{"dim": [{"size": "4"}]}]}}, "dtype": {"type": "DT_INT32"}}}, {"name": "__inference___call___1927/transpose_30/perm", "op": "Const", "attr": {"value": {"tensor": {"dtype": "DT_INT32", "tensorShape": {"dim": [{"size": "4"}]}}}, "_output_shapes": {"list": {"shape": [{"dim": [{"size": "4"}]}]}}, "dtype": {"type": "DT_INT32"}}}, {"name": "__inference___call___1927/transpose_32/perm", "op": "Const", "attr": {"dtype": {"type": "DT_INT32"}, "value": {"tensor": {"dtype": "DT_INT32", "tensorShape": {"dim": [{"size": "4"}]}}}, "_output_shapes": {"list": {"shape": [{"dim": [{"size": "4"}]}]}}}}, {"name": "__inference___call___1927/Const_3", "op": "Const", "attr": {"dtype": {"type": "DT_INT32"}, "value": {"tensor": {"dtype": "DT_INT32", "tensorShape": {"dim": [{"size": "4"}, {"size": "2"}]}}}, "_output_shapes": {"list": {"shape": [{"dim": [{"size": "4"}, {"size": "2"}]}]}}}}, {"name": "__inference___call___1927/transpose_34/perm", "op": "Const", "attr": {"value": {"tensor": {"dtype": "DT_INT32", "tensorShape": {"dim": [{"size": "4"}]}}}, "_output_shapes": {"list": {"shape": [{"dim": [{"size": "4"}]}]}}, "dtype": {"type": "DT_INT32"}}}, {"name": "__inference___call___1927/transpose_33/perm", "op": "Const", "attr": {"value": {"tensor": {"dtype": "DT_INT32", "tensorShape": {"dim": [{"size": "4"}]}}}, "dtype": {"type": "DT_INT32"}, "_output_shapes": {"list": {"shape": [{"dim": [{"size": "4"}]}]}}}}, {"name": "__inference___call___1927/Reshape_2/shape", "op": "Const", "attr": {"value": {"tensor": {"dtype": "DT_INT32", "tensorShape": {"dim": [{"size": "4"}]}}}, "_output_shapes": {"list": {"shape": [{"dim": [{"size": "4"}]}]}}, "dtype": {"type": "DT_INT32"}}}, {"name": "__inference___call___1927/transpose_35/perm", "op": "Const", "attr": {"dtype": {"type": "DT_INT32"}, "value": {"tensor": {"dtype": "DT_INT32", "tensorShape": {"dim": [{"size": "4"}]}}}, "_output_shapes": {"list": {"shape": [{"dim": [{"size": "4"}]}]}}}}, {"name": "__inference___call___1927/transpose_43/perm", "op": "Const", "attr": {"value": {"tensor": {"dtype": "DT_INT32", "tensorShape": {"dim": [{"size": "4"}]}}}, "dtype": {"type": "DT_INT32"}, "_output_shapes": {"list": {"shape": [{"dim": [{"size": "4"}]}]}}}}, {"name": "__inference___call___1927/transpose_42/perm", "op": "Const", "attr": {"value": {"tensor": {"dtype": "DT_INT32", "tensorShape": {"dim": [{"size": "4"}]}}}, "_output_shapes": {"list": {"shape": [{"dim": [{"size": "4"}]}]}}, "dtype": {"type": "DT_INT32"}}}, {"name": "__inference___call___1927/transpose_44/perm", "op": "Const", "attr": {"value": {"tensor": {"dtype": "DT_INT32", "tensorShape": {"dim": [{"size": "4"}]}}}, "_output_shapes": {"list": {"shape": [{"dim": [{"size": "4"}]}]}}, "dtype": {"type": "DT_INT32"}}}, {"name": "__inference___call___1927/ConstantFolding/split_6-folded-1", "op": "Const", "attr": {"value": {"tensor": {"dtype": "DT_INT32", "tensorShape": {"dim": [{"size": "2"}]}}}, "dtype": {"type": "DT_INT32"}}}, {"name": "__inference___call___1927/transpose_22/perm", "op": "Const", "attr": {"_output_shapes": {"list": {"shape": [{"dim": [{"size": "4"}]}]}}, "value": {"tensor": {"dtype": "DT_INT32", "tensorShape": {"dim": [{"size": "4"}]}}}, "dtype": {"type": "DT_INT32"}}}, {"name": "__inference___call___1927/transpose_21/perm", "op": "Const", "attr": {"value": {"tensor": {"dtype": "DT_INT32", "tensorShape": {"dim": [{"size": "4"}]}}}, "_output_shapes": {"list": {"shape": [{"dim": [{"size": "4"}]}]}}, "dtype": {"type": "DT_INT32"}}}, {"name": "__inference___call___1927/transpose_23/perm", "op": "Const", "attr": {"dtype": {"type": "DT_INT32"}, "value": {"tensor": {"dtype": "DT_INT32", "tensorShape": {"dim": [{"size": "4"}]}}}, "_output_shapes": {"list": {"shape": [{"dim": [{"size": "4"}]}]}}}}, {"name": "__inference___call___1927/transpose_25/perm", "op": "Const", "attr": {"value": {"tensor": {"dtype": "DT_INT32", "tensorShape": {"dim": [{"size": "4"}]}}}, "_output_shapes": {"list": {"shape": [{"dim": [{"size": "4"}]}]}}, "dtype": {"type": "DT_INT32"}}}, {"name": "__inference___call___1927/transpose_24/perm", "op": "Const", "attr": {"dtype": {"type": "DT_INT32"}, "value": {"tensor": {"dtype": "DT_INT32", "tensorShape": {"dim": [{"size": "4"}]}}}, "_output_shapes": {"list": {"shape": [{"dim": [{"size": "4"}]}]}}}}, {"name": "__inference___call___1927/transpose_26/perm", "op": "Const", "attr": {"dtype": {"type": "DT_INT32"}, "value": {"tensor": {"dtype": "DT_INT32", "tensorShape": {"dim": [{"size": "4"}]}}}, "_output_shapes": {"list": {"shape": [{"dim": [{"size": "4"}]}]}}}}, {"name": "__inference___call___1927/ConstantFolding/split_1-folded-1", "op": "Const", "attr": {"dtype": {"type": "DT_INT32"}, "value": {"tensor": {"dtype": "DT_INT32", "tensorShape": {"dim": [{"size": "2"}]}}}}}, {"name": "__inference___call___1927/transpose_7/perm", "op": "Const", "attr": {"dtype": {"type": "DT_INT32"}, "value": {"tensor": {"dtype": "DT_INT32", "tensorShape": {"dim": [{"size": "4"}]}}}, "_output_shapes": {"list": {"shape": [{"dim": [{"size": "4"}]}]}}}}, {"name": "__inference___call___1927/transpose_6/perm", "op": "Const", "attr": {"value": {"tensor": {"dtype": "DT_INT32", "tensorShape": {"dim": [{"size": "4"}]}}}, "_output_shapes": {"list": {"shape": [{"dim": [{"size": "4"}]}]}}, "dtype": {"type": "DT_INT32"}}}, {"name": "__inference___call___1927/transpose_8/perm", "op": "Const", "attr": {"value": {"tensor": {"dtype": "DT_INT32", "tensorShape": {"dim": [{"size": "4"}]}}}, "_output_shapes": {"list": {"shape": [{"dim": [{"size": "4"}]}]}}, "dtype": {"type": "DT_INT32"}}}, {"name": "__inference___call___1927/transpose_10/perm", "op": "Const", "attr": {"dtype": {"type": "DT_INT32"}, "value": {"tensor": {"dtype": "DT_INT32", "tensorShape": {"dim": [{"size": "4"}]}}}, "_output_shapes": {"list": {"shape": [{"dim": [{"size": "4"}]}]}}}}, {"name": "__inference___call___1927/transpose_9/perm", "op": "Const", "attr": {"dtype": {"type": "DT_INT32"}, "value": {"tensor": {"dtype": "DT_INT32", "tensorShape": {"dim": [{"size": "4"}]}}}, "_output_shapes": {"list": {"shape": [{"dim": [{"size": "4"}]}]}}}}, {"name": "__inference___call___1927/transpose_11/perm", "op": "Const", "attr": {"_output_shapes": {"list": {"shape": [{"dim": [{"size": "4"}]}]}}, "dtype": {"type": "DT_INT32"}, "value": {"tensor": {"dtype": "DT_INT32", "tensorShape": {"dim": [{"size": "4"}]}}}}}, {"name": "__inference___call___1927/onnx_tf_prefix_Unsqueeze_0/dim", "op": "Const", "attr": {"value": {"tensor": {"dtype": "DT_INT32", "tensorShape": {}}}, "dtype": {"type": "DT_INT32"}, "_output_shapes": {"list": {"shape": [{}]}}}}, {"name": "__inference___call___1927/Const", "op": "Const", "attr": {"dtype": {"type": "DT_INT32"}, "value": {"tensor": {"dtype": "DT_INT32", "tensorShape": {"dim": [{"size": "4"}, {"size": "2"}]}}}, "_output_shapes": {"list": {"shape": [{"dim": [{"size": "4"}, {"size": "2"}]}]}}}}, {"name": "__inference___call___1927/transpose_1/perm", "op": "Const", "attr": {"dtype": {"type": "DT_INT32"}, "value": {"tensor": {"dtype": "DT_INT32", "tensorShape": {"dim": [{"size": "4"}]}}}, "_output_shapes": {"list": {"shape": [{"dim": [{"size": "4"}]}]}}}}, {"name": "__inference___call___1927/transpose/perm", "op": "Const", "attr": {"dtype": {"type": "DT_INT32"}, "value": {"tensor": {"dtype": "DT_INT32", "tensorShape": {"dim": [{"size": "4"}]}}}, "_output_shapes": {"list": {"shape": [{"dim": [{"size": "4"}]}]}}}}, {"name": "__inference___call___1927/transpose_2/perm", "op": "Const", "attr": {"value": {"tensor": {"dtype": "DT_INT32", "tensorShape": {"dim": [{"size": "4"}]}}}, "_output_shapes": {"list": {"shape": [{"dim": [{"size": "4"}]}]}}, "dtype": {"type": "DT_INT32"}}}, {"name": "__inference___call___1927/Const_1", "op": "Const", "attr": {"value": {"tensor": {"dtype": "DT_INT32", "tensorShape": {"dim": [{"size": "4"}, {"size": "2"}]}}}, "_output_shapes": {"list": {"shape": [{"dim": [{"size": "4"}, {"size": "2"}]}]}}, "dtype": {"type": "DT_INT32"}}}, {"name": "__inference___call___1927/transpose_4/perm", "op": "Const", "attr": {"value": {"tensor": {"dtype": "DT_INT32", "tensorShape": {"dim": [{"size": "4"}]}}}, "_output_shapes": {"list": {"shape": [{"dim": [{"size": "4"}]}]}}, "dtype": {"type": "DT_INT32"}}}, {"name": "__inference___call___1927/transpose_3/perm", "op": "Const", "attr": {"dtype": {"type": "DT_INT32"}, "value": {"tensor": {"dtype": "DT_INT32", "tensorShape": {"dim": [{"size": "4"}]}}}, "_output_shapes": {"list": {"shape": [{"dim": [{"size": "4"}]}]}}}}, {"name": "__inference___call___1927/Reshape/shape", "op": "Const", "attr": {"dtype": {"type": "DT_INT32"}, "value": {"tensor": {"dtype": "DT_INT32", "tensorShape": {"dim": [{"size": "4"}]}}}, "_output_shapes": {"list": {"shape": [{"dim": [{"size": "4"}]}]}}}}, {"name": "__inference___call___1927/transpose_5/perm", "op": "Const", "attr": {"_output_shapes": {"list": {"shape": [{"dim": [{"size": "4"}]}]}}, "dtype": {"type": "DT_INT32"}, "value": {"tensor": {"dtype": "DT_INT32", "tensorShape": {"dim": [{"size": "4"}]}}}}}, {"name": "__inference___call___1927/transpose_13/perm", "op": "Const", "attr": {"dtype": {"type": "DT_INT32"}, "value": {"tensor": {"dtype": "DT_INT32", "tensorShape": {"dim": [{"size": "4"}]}}}, "_output_shapes": {"list": {"shape": [{"dim": [{"size": "4"}]}]}}}}, {"name": "__inference___call___1927/transpose_12/perm", "op": "Const", "attr": {"dtype": {"type": "DT_INT32"}, "value": {"tensor": {"dtype": "DT_INT32", "tensorShape": {"dim": [{"size": "4"}]}}}, "_output_shapes": {"list": {"shape": [{"dim": [{"size": "4"}]}]}}}}, {"name": "__inference___call___1927/transpose_15/perm", "op": "Const", "attr": {"dtype": {"type": "DT_INT32"}, "value": {"tensor": {"dtype": "DT_INT32", "tensorShape": {"dim": [{"size": "4"}]}}}, "_output_shapes": {"list": {"shape": [{"dim": [{"size": "4"}]}]}}}}, {"name": "__inference___call___1927/transpose_17/perm", "op": "Const", "attr": {"_output_shapes": {"list": {"shape": [{"dim": [{"size": "4"}]}]}}, "dtype": {"type": "DT_INT32"}, "value": {"tensor": {"dtype": "DT_INT32", "tensorShape": {"dim": [{"size": "4"}]}}}}}, {"name": "__inference___call___1927/Const_2", "op": "Const", "attr": {"value": {"tensor": {"dtype": "DT_INT32", "tensorShape": {"dim": [{"size": "4"}, {"size": "2"}]}}}, "_output_shapes": {"list": {"shape": [{"dim": [{"size": "4"}, {"size": "2"}]}]}}, "dtype": {"type": "DT_INT32"}}}, {"name": "__inference___call___1927/transpose_19/perm", "op": "Const", "attr": {"dtype": {"type": "DT_INT32"}, "value": {"tensor": {"dtype": "DT_INT32", "tensorShape": {"dim": [{"size": "4"}]}}}, "_output_shapes": {"list": {"shape": [{"dim": [{"size": "4"}]}]}}}}, {"name": "__inference___call___1927/transpose_18/perm", "op": "Const", "attr": {"dtype": {"type": "DT_INT32"}, "value": {"tensor": {"dtype": "DT_INT32", "tensorShape": {"dim": [{"size": "4"}]}}}, "_output_shapes": {"list": {"shape": [{"dim": [{"size": "4"}]}]}}}}, {"name": "__inference___call___1927/Reshape_1/shape", "op": "Const", "attr": {"value": {"tensor": {"dtype": "DT_INT32", "tensorShape": {"dim": [{"size": "4"}]}}}, "_output_shapes": {"list": {"shape": [{"dim": [{"size": "4"}]}]}}, "dtype": {"type": "DT_INT32"}}}, {"name": "__inference___call___1927/transpose_20/perm", "op": "Const", "attr": {"value": {"tensor": {"dtype": "DT_INT32", "tensorShape": {"dim": [{"size": "4"}]}}}, "_output_shapes": {"list": {"shape": [{"dim": [{"size": "4"}]}]}}, "dtype": {"type": "DT_INT32"}}}, {"name": "__inference___call___1927/transpose_28/perm", "op": "Const", "attr": {"value": {"tensor": {"dtype": "DT_INT32", "tensorShape": {"dim": [{"size": "4"}]}}}, "_output_shapes": {"list": {"shape": [{"dim": [{"size": "4"}]}]}}, "dtype": {"type": "DT_INT32"}}}, {"name": "__inference___call___1927/transpose_27/perm", "op": "Const", "attr": {"dtype": {"type": "DT_INT32"}, "value": {"tensor": {"dtype": "DT_INT32", "tensorShape": {"dim": [{"size": "4"}]}}}, "_output_shapes": {"list": {"shape": [{"dim": [{"size": "4"}]}]}}}}, {"name": "__inference___call___1927/transpose_29/perm", "op": "Const", "attr": {"value": {"tensor": {"dtype": "DT_INT32", "tensorShape": {"dim": [{"size": "4"}]}}}, "_output_shapes": {"list": {"shape": [{"dim": [{"size": "4"}]}]}}, "dtype": {"type": "DT_INT32"}}}, {"name": "__inference___call___1927/transpose_46/perm", "op": "Const", "attr": {"value": {"tensor": {"dtype": "DT_INT32", "tensorShape": {"dim": [{"size": "4"}]}}}, "_output_shapes": {"list": {"shape": [{"dim": [{"size": "4"}]}]}}, "dtype": {"type": "DT_INT32"}}}, {"name": "__inference___call___1927/transpose_45/perm", "op": "Const", "attr": {"value": {"tensor": {"dtype": "DT_INT32", "tensorShape": {"dim": [{"size": "4"}]}}}, "_output_shapes": {"list": {"shape": [{"dim": [{"size": "4"}]}]}}, "dtype": {"type": "DT_INT32"}}}, {"name": "__inference___call___1927/transpose_47/perm", "op": "Const", "attr": {"_output_shapes": {"list": {"shape": [{"dim": [{"size": "4"}]}]}}, "dtype": {"type": "DT_INT32"}, "value": {"tensor": {"dtype": "DT_INT32", "tensorShape": {"dim": [{"size": "4"}]}}}}}, {"name": "__inference___call___1927/Const_4", "op": "Const", "attr": {"value": {"tensor": {"dtype": "DT_INT32", "tensorShape": {"dim": [{"size": "4"}, {"size": "2"}]}}}, "_output_shapes": {"list": {"shape": [{"dim": [{"size": "4"}, {"size": "2"}]}]}}, "dtype": {"type": "DT_INT32"}}}, {"name": "__inference___call___1927/transpose_49/perm", "op": "Const", "attr": {"value": {"tensor": {"dtype": "DT_INT32", "tensorShape": {"dim": [{"size": "4"}]}}}, "_output_shapes": {"list": {"shape": [{"dim": [{"size": "4"}]}]}}, "dtype": {"type": "DT_INT32"}}}, {"name": "__inference___call___1927/transpose_48/perm", "op": "Const", "attr": {"_output_shapes": {"list": {"shape": [{"dim": [{"size": "4"}]}]}}, "dtype": {"type": "DT_INT32"}, "value": {"tensor": {"dtype": "DT_INT32", "tensorShape": {"dim": [{"size": "4"}]}}}}}, {"name": "__inference___call___1927/Reshape_3/shape", "op": "Const", "attr": {"dtype": {"type": "DT_INT32"}, "value": {"tensor": {"dtype": "DT_INT32", "tensorShape": {"dim": [{"size": "4"}]}}}, "_output_shapes": {"list": {"shape": [{"dim": [{"size": "4"}]}]}}}}, {"name": "__inference___call___1927/transpose_50/perm", "op": "Const", "attr": {"_output_shapes": {"list": {"shape": [{"dim": [{"size": "4"}]}]}}, "dtype": {"type": "DT_INT32"}, "value": {"tensor": {"dtype": "DT_INT32", "tensorShape": {"dim": [{"size": "4"}]}}}}}, {"name": "__inference___call___1927/transpose_58/perm", "op": "Const", "attr": {"dtype": {"type": "DT_INT32"}, "value": {"tensor": {"dtype": "DT_INT32", "tensorShape": {"dim": [{"size": "4"}]}}}, "_output_shapes": {"list": {"shape": [{"dim": [{"size": "4"}]}]}}}}, {"name": "__inference___call___1927/transpose_57/perm", "op": "Const", "attr": {"value": {"tensor": {"dtype": "DT_INT32", "tensorShape": {"dim": [{"size": "4"}]}}}, "_output_shapes": {"list": {"shape": [{"dim": [{"size": "4"}]}]}}, "dtype": {"type": "DT_INT32"}}}, {"name": "__inference___call___1927/transpose_59/perm", "op": "Const", "attr": {"_output_shapes": {"list": {"shape": [{"dim": [{"size": "4"}]}]}}, "dtype": {"type": "DT_INT32"}, "value": {"tensor": {"dtype": "DT_INT32", "tensorShape": {"dim": [{"size": "4"}]}}}}}, {"name": "__inference___call___1927/transpose_76/perm", "op": "Const", "attr": {"dtype": {"type": "DT_INT32"}, "value": {"tensor": {"dtype": "DT_INT32", "tensorShape": {"dim": [{"size": "4"}]}}}, "_output_shapes": {"list": {"shape": [{"dim": [{"size": "4"}]}]}}}}, {"name": "__inference___call___1927/transpose_75/perm", "op": "Const", "attr": {"_output_shapes": {"list": {"shape": [{"dim": [{"size": "4"}]}]}}, "dtype": {"type": "DT_INT32"}, "value": {"tensor": {"dtype": "DT_INT32", "tensorShape": {"dim": [{"size": "4"}]}}}}}, {"name": "__inference___call___1927/transpose_77/perm", "op": "Const", "attr": {"value": {"tensor": {"dtype": "DT_INT32", "tensorShape": {"dim": [{"size": "4"}]}}}, "_output_shapes": {"list": {"shape": [{"dim": [{"size": "4"}]}]}}, "dtype": {"type": "DT_INT32"}}}, {"name": "__inference___call___1927/Const_6", "op": "Const", "attr": {"_output_shapes": {"list": {"shape": [{"dim": [{"size": "4"}, {"size": "2"}]}]}}, "dtype": {"type": "DT_INT32"}, "value": {"tensor": {"dtype": "DT_INT32", "tensorShape": {"dim": [{"size": "4"}, {"size": "2"}]}}}}}, {"name": "__inference___call___1927/transpose_79/perm", "op": "Const", "attr": {"value": {"tensor": {"dtype": "DT_INT32", "tensorShape": {"dim": [{"size": "4"}]}}}, "_output_shapes": {"list": {"shape": [{"dim": [{"size": "4"}]}]}}, "dtype": {"type": "DT_INT32"}}}, {"name": "__inference___call___1927/transpose_78/perm", "op": "Const", "attr": {"dtype": {"type": "DT_INT32"}, "value": {"tensor": {"dtype": "DT_INT32", "tensorShape": {"dim": [{"size": "4"}]}}}, "_output_shapes": {"list": {"shape": [{"dim": [{"size": "4"}]}]}}}}, {"name": "__inference___call___1927/Reshape_5/shape", "op": "Const", "attr": {"_output_shapes": {"list": {"shape": [{"dim": [{"size": "4"}]}]}}, "dtype": {"type": "DT_INT32"}, "value": {"tensor": {"dtype": "DT_INT32", "tensorShape": {"dim": [{"size": "4"}]}}}}}, {"name": "__inference___call___1927/transpose_80/perm", "op": "Const", "attr": {"value": {"tensor": {"dtype": "DT_INT32", "tensorShape": {"dim": [{"size": "4"}]}}}, "_output_shapes": {"list": {"shape": [{"dim": [{"size": "4"}]}]}}, "dtype": {"type": "DT_INT32"}}}, {"name": "__inference___call___1927/transpose_88/perm", "op": "Const", "attr": {"dtype": {"type": "DT_INT32"}, "value": {"tensor": {"dtype": "DT_INT32", "tensorShape": {"dim": [{"size": "4"}]}}}, "_output_shapes": {"list": {"shape": [{"dim": [{"size": "4"}]}]}}}}, {"name": "__inference___call___1927/transpose_87/perm", "op": "Const", "attr": {"_output_shapes": {"list": {"shape": [{"dim": [{"size": "4"}]}]}}, "dtype": {"type": "DT_INT32"}, "value": {"tensor": {"dtype": "DT_INT32", "tensorShape": {"dim": [{"size": "4"}]}}}}}, {"name": "__inference___call___1927/transpose_89/perm", "op": "Const", "attr": {"dtype": {"type": "DT_INT32"}, "value": {"tensor": {"dtype": "DT_INT32", "tensorShape": {"dim": [{"size": "4"}]}}}, "_output_shapes": {"list": {"shape": [{"dim": [{"size": "4"}]}]}}}}, {"name": "__inference___call___1927/transpose_121/perm", "op": "Const", "attr": {"dtype": {"type": "DT_INT32"}, "value": {"tensor": {"dtype": "DT_INT32", "tensorShape": {"dim": [{"size": "4"}]}}}, "_output_shapes": {"list": {"shape": [{"dim": [{"size": "4"}]}]}}}}, {"name": "__inference___call___1927/transpose_120/perm", "op": "Const", "attr": {"dtype": {"type": "DT_INT32"}, "value": {"tensor": {"dtype": "DT_INT32", "tensorShape": {"dim": [{"size": "4"}]}}}, "_output_shapes": {"list": {"shape": [{"dim": [{"size": "4"}]}]}}}}, {"name": "__inference___call___1927/transpose_122/perm", "op": "Const", "attr": {"dtype": {"type": "DT_INT32"}, "value": {"tensor": {"dtype": "DT_INT32", "tensorShape": {"dim": [{"size": "4"}]}}}, "_output_shapes": {"list": {"shape": [{"dim": [{"size": "4"}]}]}}}}, {"name": "__inference___call___1927/Const_9", "op": "Const", "attr": {"dtype": {"type": "DT_INT32"}, "_output_shapes": {"list": {"shape": [{"dim": [{"size": "4"}, {"size": "2"}]}]}}, "value": {"tensor": {"dtype": "DT_INT32", "tensorShape": {"dim": [{"size": "4"}, {"size": "2"}]}}}}}, {"name": "__inference___call___1927/transpose_124/perm", "op": "Const", "attr": {"_output_shapes": {"list": {"shape": [{"dim": [{"size": "4"}]}]}}, "value": {"tensor": {"dtype": "DT_INT32", "tensorShape": {"dim": [{"size": "4"}]}}}, "dtype": {"type": "DT_INT32"}}}, {"name": "__inference___call___1927/transpose_123/perm", "op": "Const", "attr": {"dtype": {"type": "DT_INT32"}, "value": {"tensor": {"dtype": "DT_INT32", "tensorShape": {"dim": [{"size": "4"}]}}}, "_output_shapes": {"list": {"shape": [{"dim": [{"size": "4"}]}]}}}}, {"name": "__inference___call___1927/Reshape_8/shape", "op": "Const", "attr": {"dtype": {"type": "DT_INT32"}, "value": {"tensor": {"dtype": "DT_INT32", "tensorShape": {"dim": [{"size": "4"}]}}}, "_output_shapes": {"list": {"shape": [{"dim": [{"size": "4"}]}]}}}}, {"name": "__inference___call___1927/transpose_125/perm", "op": "Const", "attr": {"value": {"tensor": {"dtype": "DT_INT32", "tensorShape": {"dim": [{"size": "4"}]}}}, "_output_shapes": {"list": {"shape": [{"dim": [{"size": "4"}]}]}}, "dtype": {"type": "DT_INT32"}}}, {"name": "__inference___call___1927/transpose_133/perm", "op": "Const", "attr": {"value": {"tensor": {"dtype": "DT_INT32", "tensorShape": {"dim": [{"size": "4"}]}}}, "_output_shapes": {"list": {"shape": [{"dim": [{"size": "4"}]}]}}, "dtype": {"type": "DT_INT32"}}}, {"name": "__inference___call___1927/transpose_132/perm", "op": "Const", "attr": {"dtype": {"type": "DT_INT32"}, "_output_shapes": {"list": {"shape": [{"dim": [{"size": "4"}]}]}}, "value": {"tensor": {"dtype": "DT_INT32", "tensorShape": {"dim": [{"size": "4"}]}}}}}, {"name": "__inference___call___1927/transpose_134/perm", "op": "Const", "attr": {"dtype": {"type": "DT_INT32"}, "value": {"tensor": {"dtype": "DT_INT32", "tensorShape": {"dim": [{"size": "4"}]}}}, "_output_shapes": {"list": {"shape": [{"dim": [{"size": "4"}]}]}}}}, {"name": "__inference___call___1927/transpose_166/perm", "op": "Const", "attr": {"_output_shapes": {"list": {"shape": [{"dim": [{"size": "4"}]}]}}, "dtype": {"type": "DT_INT32"}, "value": {"tensor": {"dtype": "DT_INT32", "tensorShape": {"dim": [{"size": "4"}]}}}}}, {"name": "__inference___call___1927/transpose_165/perm", "op": "Const", "attr": {"dtype": {"type": "DT_INT32"}, "value": {"tensor": {"dtype": "DT_INT32", "tensorShape": {"dim": [{"size": "4"}]}}}, "_output_shapes": {"list": {"shape": [{"dim": [{"size": "4"}]}]}}}}, {"name": "__inference___call___1927/transpose_167/perm", "op": "Const", "attr": {"dtype": {"type": "DT_INT32"}, "value": {"tensor": {"dtype": "DT_INT32", "tensorShape": {"dim": [{"size": "4"}]}}}, "_output_shapes": {"list": {"shape": [{"dim": [{"size": "4"}]}]}}}}, {"name": "__inference___call___1927/Const_12", "op": "Const", "attr": {"dtype": {"type": "DT_INT32"}, "_output_shapes": {"list": {"shape": [{"dim": [{"size": "4"}, {"size": "2"}]}]}}, "value": {"tensor": {"dtype": "DT_INT32", "tensorShape": {"dim": [{"size": "4"}, {"size": "2"}]}}}}}, {"name": "__inference___call___1927/transpose_169/perm", "op": "Const", "attr": {"dtype": {"type": "DT_INT32"}, "value": {"tensor": {"dtype": "DT_INT32", "tensorShape": {"dim": [{"size": "4"}]}}}, "_output_shapes": {"list": {"shape": [{"dim": [{"size": "4"}]}]}}}}, {"name": "__inference___call___1927/transpose_168/perm", "op": "Const", "attr": {"dtype": {"type": "DT_INT32"}, "_output_shapes": {"list": {"shape": [{"dim": [{"size": "4"}]}]}}, "value": {"tensor": {"dtype": "DT_INT32", "tensorShape": {"dim": [{"size": "4"}]}}}}}, {"name": "__inference___call___1927/Reshape_11/shape", "op": "Const", "attr": {"dtype": {"type": "DT_INT32"}, "value": {"tensor": {"dtype": "DT_INT32", "tensorShape": {"dim": [{"size": "4"}]}}}, "_output_shapes": {"list": {"shape": [{"dim": [{"size": "4"}]}]}}}}, {"name": "__inference___call___1927/transpose_170/perm", "op": "Const", "attr": {"value": {"tensor": {"dtype": "DT_INT32", "tensorShape": {"dim": [{"size": "4"}]}}}, "_output_shapes": {"list": {"shape": [{"dim": [{"size": "4"}]}]}}, "dtype": {"type": "DT_INT32"}}}, {"name": "__inference___call___1927/transpose_178/perm", "op": "Const", "attr": {"dtype": {"type": "DT_INT32"}, "value": {"tensor": {"dtype": "DT_INT32", "tensorShape": {"dim": [{"size": "4"}]}}}, "_output_shapes": {"list": {"shape": [{"dim": [{"size": "4"}]}]}}}}, {"name": "__inference___call___1927/transpose_177/perm", "op": "Const", "attr": {"value": {"tensor": {"dtype": "DT_INT32", "tensorShape": {"dim": [{"size": "4"}]}}}, "_output_shapes": {"list": {"shape": [{"dim": [{"size": "4"}]}]}}, "dtype": {"type": "DT_INT32"}}}, {"name": "__inference___call___1927/transpose_179/perm", "op": "Const", "attr": {"value": {"tensor": {"dtype": "DT_INT32", "tensorShape": {"dim": [{"size": "4"}]}}}, "_output_shapes": {"list": {"shape": [{"dim": [{"size": "4"}]}]}}, "dtype": {"type": "DT_INT32"}}}, {"name": "__inference___call___1927/transpose_226/perm", "op": "Const", "attr": {"value": {"tensor": {"dtype": "DT_INT32", "tensorShape": {"dim": [{"size": "4"}]}}}, "_output_shapes": {"list": {"shape": [{"dim": [{"size": "4"}]}]}}, "dtype": {"type": "DT_INT32"}}}, {"name": "__inference___call___1927/transpose_225/perm", "op": "Const", "attr": {"dtype": {"type": "DT_INT32"}, "value": {"tensor": {"dtype": "DT_INT32", "tensorShape": {"dim": [{"size": "4"}]}}}, "_output_shapes": {"list": {"shape": [{"dim": [{"size": "4"}]}]}}}}, {"name": "__inference___call___1927/transpose_227/perm", "op": "Const", "attr": {"dtype": {"type": "DT_INT32"}, "value": {"tensor": {"dtype": "DT_INT32", "tensorShape": {"dim": [{"size": "4"}]}}}, "_output_shapes": {"list": {"shape": [{"dim": [{"size": "4"}]}]}}}}, {"name": "__inference___call___1927/Const_16", "op": "Const", "attr": {"value": {"tensor": {"dtype": "DT_INT32", "tensorShape": {"dim": [{"size": "4"}, {"size": "2"}]}}}, "_output_shapes": {"list": {"shape": [{"dim": [{"size": "4"}, {"size": "2"}]}]}}, "dtype": {"type": "DT_INT32"}}}, {"name": "__inference___call___1927/transpose_229/perm", "op": "Const", "attr": {"_output_shapes": {"list": {"shape": [{"dim": [{"size": "4"}]}]}}, "dtype": {"type": "DT_INT32"}, "value": {"tensor": {"dtype": "DT_INT32", "tensorShape": {"dim": [{"size": "4"}]}}}}}, {"name": "__inference___call___1927/transpose_228/perm", "op": "Const", "attr": {"_output_shapes": {"list": {"shape": [{"dim": [{"size": "4"}]}]}}, "dtype": {"type": "DT_INT32"}, "value": {"tensor": {"dtype": "DT_INT32", "tensorShape": {"dim": [{"size": "4"}]}}}}}, {"name": "__inference___call___1927/Reshape_15/shape", "op": "Const", "attr": {"dtype": {"type": "DT_INT32"}, "value": {"tensor": {"dtype": "DT_INT32", "tensorShape": {"dim": [{"size": "4"}]}}}, "_output_shapes": {"list": {"shape": [{"dim": [{"size": "4"}]}]}}}}, {"name": "__inference___call___1927/transpose_230/perm", "op": "Const", "attr": {"dtype": {"type": "DT_INT32"}, "value": {"tensor": {"dtype": "DT_INT32", "tensorShape": {"dim": [{"size": "4"}]}}}, "_output_shapes": {"list": {"shape": [{"dim": [{"size": "4"}]}]}}}}, {"name": "__inference___call___1927/transpose_238/perm", "op": "Const", "attr": {"_output_shapes": {"list": {"shape": [{"dim": [{"size": "4"}]}]}}, "dtype": {"type": "DT_INT32"}, "value": {"tensor": {"dtype": "DT_INT32", "tensorShape": {"dim": [{"size": "4"}]}}}}}, {"name": "__inference___call___1927/transpose_237/perm", "op": "Const", "attr": {"_output_shapes": {"list": {"shape": [{"dim": [{"size": "4"}]}]}}, "dtype": {"type": "DT_INT32"}, "value": {"tensor": {"dtype": "DT_INT32", "tensorShape": {"dim": [{"size": "4"}]}}}}}, {"name": "__inference___call___1927/transpose_240/perm", "op": "Const", "attr": {"dtype": {"type": "DT_INT32"}, "_output_shapes": {"list": {"shape": [{"dim": [{"size": "4"}]}]}}, "value": {"tensor": {"dtype": "DT_INT32", "tensorShape": {"dim": [{"size": "4"}]}}}}}, {"name": "__inference___call___1927/transpose_242/perm", "op": "Const", "attr": {"value": {"tensor": {"dtype": "DT_INT32", "tensorShape": {"dim": [{"size": "4"}]}}}, "_output_shapes": {"list": {"shape": [{"dim": [{"size": "4"}]}]}}, "dtype": {"type": "DT_INT32"}}}, {"name": "__inference___call___1927/ConstantFolding/split_81-folded-1", "op": "Const", "attr": {"dtype": {"type": "DT_INT32"}, "value": {"tensor": {"dtype": "DT_INT32", "tensorShape": {"dim": [{"size": "2"}]}}}}}, {"name": "__inference___call___1927/Reshape_16/shape", "op": "Const", "attr": {"value": {"tensor": {"dtype": "DT_INT32", "tensorShape": {"dim": [{"size": "2"}]}}}, "dtype": {"type": "DT_INT32"}}}, {"name": "mul_1", "op": "Mul", "input": ["__inference___call___1927/mul_1/x:output:0", "mul_1_y"], "attr": {"T": {"type": "DT_FLOAT"}, "_output_shapes": {"list": {"shape": [{"dim": [{"size": "400"}]}]}}}}, {"name": "transpose_231", "op": "Transpose", "input": ["transpose_231_x", "__inference___call___1927/transpose_231/perm:output:0"], "attr": {"_input_shapes": {"list": {"shape": [{"dim": [{"size": "-343"}, {"size": "-344"}, {"size": "-345"}, {"size": "-346"}]}, {"dim": [{"size": "4"}]}]}}, "Tperm": {"type": "DT_INT32"}, "_output_shapes": {"list": {"shape": [{"dim": [{"size": "1"}, {"size": "1"}, {"size": "1152"}, {"size": "48"}]}]}}, "T": {"type": "DT_FLOAT"}}}, {"name": "transpose_234", "op": "Transpose", "input": ["transpose_234_x", "__inference___call___1927/transpose_234/perm:output:0"], "attr": {"_output_shapes": {"list": {"shape": [{"dim": [{"size": "1"}, {"size": "1"}, {"size": "48"}, {"size": "1152"}]}]}}, "_input_shapes": {"list": {"shape": [{"dim": [{"size": "-347"}, {"size": "-348"}, {"size": "-349"}, {"size": "-350"}]}, {"dim": [{"size": "4"}]}]}}, "T": {"type": "DT_FLOAT"}, "Tperm": {"type": "DT_INT32"}}}, {"name": "transpose_216", "op": "Transpose", "input": ["transpose_216_x", "__inference___call___1927/transpose_216/perm:output:0"], "attr": {"_output_shapes": {"list": {"shape": [{"dim": [{"size": "1"}, {"size": "1"}, {"size": "1152"}, {"size": "48"}]}]}}, "_input_shapes": {"list": {"shape": [{"dim": [{"size": "-323"}, {"size": "-324"}, {"size": "-325"}, {"size": "-326"}]}, {"dim": [{"size": "4"}]}]}}, "Tperm": {"type": "DT_INT32"}, "T": {"type": "DT_FLOAT"}}}, {"name": "transpose_219", "op": "Transpose", "input": ["transpose_219_x", "__inference___call___1927/transpose_219/perm:output:0"], "attr": {"_output_shapes": {"list": {"shape": [{"dim": [{"size": "1"}, {"size": "1"}, {"size": "48"}, {"size": "1152"}]}]}}, "_input_shapes": {"list": {"shape": [{"dim": [{"size": "-327"}, {"size": "-328"}, {"size": "-329"}, {"size": "-330"}]}, {"dim": [{"size": "4"}]}]}}, "Tperm": {"type": "DT_INT32"}, "T": {"type": "DT_FLOAT"}}}, {"name": "transpose_210", "op": "Transpose", "input": ["transpose_210_x", "__inference___call___1927/transpose_210/perm:output:0"], "attr": {"_output_shapes": {"list": {"shape": [{"dim": [{"size": "1"}, {"size": "1"}, {"size": "192"}, {"size": "1152"}]}]}}, "Tperm": {"type": "DT_INT32"}, "T": {"type": "DT_FLOAT"}, "_input_shapes": {"list": {"shape": [{"dim": [{"size": "-315"}, {"size": "-316"}, {"size": "-317"}, {"size": "-318"}]}, {"dim": [{"size": "4"}]}]}}}}, {"name": "transpose_213", "op": "Transpose", "input": ["transpose_213_x", "__inference___call___1927/transpose_213/perm:output:0"], "attr": {"_output_shapes": {"list": {"shape": [{"dim": [{"size": "5"}, {"size": "5"}, {"size": "1"}, {"size": "1152"}]}]}}, "Tperm": {"type": "DT_INT32"}, "_input_shapes": {"list": {"shape": [{"dim": [{"size": "-319"}, {"size": "-320"}, {"size": "-321"}, {"size": "-322"}]}, {"dim": [{"size": "4"}]}]}}, "T": {"type": "DT_FLOAT"}}}, {"name": "transpose_222", "op": "Transpose", "input": ["transpose_222_x", "__inference___call___1927/transpose_222/perm:output:0"], "attr": {"_input_shapes": {"list": {"shape": [{"dim": [{"size": "-331"}, {"size": "-332"}, {"size": "-333"}, {"size": "-334"}]}, {"dim": [{"size": "4"}]}]}}, "T": {"type": "DT_FLOAT"}, "_output_shapes": {"list": {"shape": [{"dim": [{"size": "1"}, {"size": "1"}, {"size": "1152"}, {"size": "192"}]}]}}, "Tperm": {"type": "DT_INT32"}}}, {"name": "transpose_201", "op": "Transpose", "input": ["transpose_201_x", "__inference___call___1927/transpose_201/perm:output:0"], "attr": {"_output_shapes": {"list": {"shape": [{"dim": [{"size": "1"}, {"size": "1"}, {"size": "1152"}, {"size": "48"}]}]}}, "Tperm": {"type": "DT_INT32"}, "_input_shapes": {"list": {"shape": [{"dim": [{"size": "-303"}, {"size": "-304"}, {"size": "-305"}, {"size": "-306"}]}, {"dim": [{"size": "4"}]}]}}, "T": {"type": "DT_FLOAT"}}}, {"name": "transpose_204", "op": "Transpose", "input": ["transpose_204_x", "__inference___call___1927/transpose_204/perm:output:0"], "attr": {"_output_shapes": {"list": {"shape": [{"dim": [{"size": "1"}, {"size": "1"}, {"size": "48"}, {"size": "1152"}]}]}}, "T": {"type": "DT_FLOAT"}, "_input_shapes": {"list": {"shape": [{"dim": [{"size": "-307"}, {"size": "-308"}, {"size": "-309"}, {"size": "-310"}]}, {"dim": [{"size": "4"}]}]}}, "Tperm": {"type": "DT_INT32"}}}, {"name": "transpose_195", "op": "Transpose", "input": ["transpose_195_x", "__inference___call___1927/transpose_195/perm:output:0"], "attr": {"_input_shapes": {"list": {"shape": [{"dim": [{"size": "-295"}, {"size": "-296"}, {"size": "-297"}, {"size": "-298"}]}, {"dim": [{"size": "4"}]}]}}, "Tperm": {"type": "DT_INT32"}, "_output_shapes": {"list": {"shape": [{"dim": [{"size": "1"}, {"size": "1"}, {"size": "192"}, {"size": "1152"}]}]}}, "T": {"type": "DT_FLOAT"}}}, {"name": "transpose_198", "op": "Transpose", "input": ["transpose_198_x", "__inference___call___1927/transpose_198/perm:output:0"], "attr": {"_output_shapes": {"list": {"shape": [{"dim": [{"size": "5"}, {"size": "5"}, {"size": "1"}, {"size": "1152"}]}]}}, "Tperm": {"type": "DT_INT32"}, "_input_shapes": {"list": {"shape": [{"dim": [{"size": "-299"}, {"size": "-300"}, {"size": "-301"}, {"size": "-302"}]}, {"dim": [{"size": "4"}]}]}}, "T": {"type": "DT_FLOAT"}}}, {"name": "transpose_207", "op": "Transpose", "input": ["transpose_207_x", "__inference___call___1927/transpose_207/perm:output:0"], "attr": {"Tperm": {"type": "DT_INT32"}, "_output_shapes": {"list": {"shape": [{"dim": [{"size": "1"}, {"size": "1"}, {"size": "1152"}, {"size": "192"}]}]}}, "_input_shapes": {"list": {"shape": [{"dim": [{"size": "-311"}, {"size": "-312"}, {"size": "-313"}, {"size": "-314"}]}, {"dim": [{"size": "4"}]}]}}, "T": {"type": "DT_FLOAT"}}}, {"name": "transpose_186", "op": "Transpose", "input": ["transpose_186_x", "__inference___call___1927/transpose_186/perm:output:0"], "attr": {"Tperm": {"type": "DT_INT32"}, "T": {"type": "DT_FLOAT"}, "_output_shapes": {"list": {"shape": [{"dim": [{"size": "1"}, {"size": "1"}, {"size": "1152"}, {"size": "48"}]}]}}, "_input_shapes": {"list": {"shape": [{"dim": [{"size": "-283"}, {"size": "-284"}, {"size": "-285"}, {"size": "-286"}]}, {"dim": [{"size": "4"}]}]}}}}, {"name": "transpose_189", "op": "Transpose", "input": ["transpose_189_x", "__inference___call___1927/transpose_189/perm:output:0"], "attr": {"_output_shapes": {"list": {"shape": [{"dim": [{"size": "1"}, {"size": "1"}, {"size": "48"}, {"size": "1152"}]}]}}, "_input_shapes": {"list": {"shape": [{"dim": [{"size": "-287"}, {"size": "-288"}, {"size": "-289"}, {"size": "-290"}]}, {"dim": [{"size": "4"}]}]}}, "Tperm": {"type": "DT_INT32"}, "T": {"type": "DT_FLOAT"}}}, {"name": "transpose_180", "op": "Transpose", "input": ["transpose_180_x", "__inference___call___1927/transpose_180/perm:output:0"], "attr": {"T": {"type": "DT_FLOAT"}, "_output_shapes": {"list": {"shape": [{"dim": [{"size": "1"}, {"size": "1"}, {"size": "192"}, {"size": "1152"}]}]}}, "_input_shapes": {"list": {"shape": [{"dim": [{"size": "-275"}, {"size": "-276"}, {"size": "-277"}, {"size": "-278"}]}, {"dim": [{"size": "4"}]}]}}, "Tperm": {"type": "DT_INT32"}}}, {"name": "transpose_183", "op": "Transpose", "input": ["transpose_183_x", "__inference___call___1927/transpose_183/perm:output:0"], "attr": {"_input_shapes": {"list": {"shape": [{"dim": [{"size": "-279"}, {"size": "-280"}, {"size": "-281"}, {"size": "-282"}]}, {"dim": [{"size": "4"}]}]}}, "Tperm": {"type": "DT_INT32"}, "_output_shapes": {"list": {"shape": [{"dim": [{"size": "5"}, {"size": "5"}, {"size": "1"}, {"size": "1152"}]}]}}, "T": {"type": "DT_FLOAT"}}}, {"name": "transpose_192", "op": "Transpose", "input": ["transpose_192_x", "__inference___call___1927/transpose_192/perm:output:0"], "attr": {"_input_shapes": {"list": {"shape": [{"dim": [{"size": "-291"}, {"size": "-292"}, {"size": "-293"}, {"size": "-294"}]}, {"dim": [{"size": "4"}]}]}}, "Tperm": {"type": "DT_INT32"}, "_output_shapes": {"list": {"shape": [{"dim": [{"size": "1"}, {"size": "1"}, {"size": "1152"}, {"size": "192"}]}]}}, "T": {"type": "DT_FLOAT"}}}, {"name": "transpose_171", "op": "Transpose", "input": ["transpose_171_x", "__inference___call___1927/transpose_171/perm:output:0"], "attr": {"_output_shapes": {"list": {"shape": [{"dim": [{"size": "1"}, {"size": "1"}, {"size": "672"}, {"size": "28"}]}]}}, "T": {"type": "DT_FLOAT"}, "_input_shapes": {"list": {"shape": [{"dim": [{"size": "-263"}, {"size": "-264"}, {"size": "-265"}, {"size": "-266"}]}, {"dim": [{"size": "4"}]}]}}, "Tperm": {"type": "DT_INT32"}}}, {"name": "transpose_174", "op": "Transpose", "input": ["transpose_174_x", "__inference___call___1927/transpose_174/perm:output:0"], "attr": {"_output_shapes": {"list": {"shape": [{"dim": [{"size": "1"}, {"size": "1"}, {"size": "28"}, {"size": "672"}]}]}}, "_input_shapes": {"list": {"shape": [{"dim": [{"size": "-267"}, {"size": "-268"}, {"size": "-269"}, {"size": "-270"}]}, {"dim": [{"size": "4"}]}]}}, "Tperm": {"type": "DT_INT32"}, "T": {"type": "DT_FLOAT"}}}, {"name": "transpose_156", "op": "Transpose", "input": ["transpose_156_x", "__inference___call___1927/transpose_156/perm:output:0"], "attr": {"_output_shapes": {"list": {"shape": [{"dim": [{"size": "1"}, {"size": "1"}, {"size": "672"}, {"size": "28"}]}]}}, "_input_shapes": {"list": {"shape": [{"dim": [{"size": "-243"}, {"size": "-244"}, {"size": "-245"}, {"size": "-246"}]}, {"dim": [{"size": "4"}]}]}}, "T": {"type": "DT_FLOAT"}, "Tperm": {"type": "DT_INT32"}}}, {"name": "transpose_159", "op": "Transpose", "input": ["transpose_159_x", "__inference___call___1927/transpose_159/perm:output:0"], "attr": {"_input_shapes": {"list": {"shape": [{"dim": [{"size": "-247"}, {"size": "-248"}, {"size": "-249"}, {"size": "-250"}]}, {"dim": [{"size": "4"}]}]}}, "_output_shapes": {"list": {"shape": [{"dim": [{"size": "1"}, {"size": "1"}, {"size": "28"}, {"size": "672"}]}]}}, "Tperm": {"type": "DT_INT32"}, "T": {"type": "DT_FLOAT"}}}, {"name": "transpose_150", "op": "Transpose", "input": ["transpose_150_x", "__inference___call___1927/transpose_150/perm:output:0"], "attr": {"Tperm": {"type": "DT_INT32"}, "_input_shapes": {"list": {"shape": [{"dim": [{"size": "-235"}, {"size": "-236"}, {"size": "-237"}, {"size": "-238"}]}, {"dim": [{"size": "4"}]}]}}, "T": {"type": "DT_FLOAT"}, "_output_shapes": {"list": {"shape": [{"dim": [{"size": "1"}, {"size": "1"}, {"size": "112"}, {"size": "672"}]}]}}}}, {"name": "transpose_153", "op": "Transpose", "input": ["transpose_153_x", "__inference___call___1927/transpose_153/perm:output:0"], "attr": {"_output_shapes": {"list": {"shape": [{"dim": [{"size": "5"}, {"size": "5"}, {"size": "1"}, {"size": "672"}]}]}}, "Tperm": {"type": "DT_INT32"}, "_input_shapes": {"list": {"shape": [{"dim": [{"size": "-239"}, {"size": "-240"}, {"size": "-241"}, {"size": "-242"}]}, {"dim": [{"size": "4"}]}]}}, "T": {"type": "DT_FLOAT"}}}, {"name": "transpose_162", "op": "Transpose", "input": ["transpose_162_x", "__inference___call___1927/transpose_162/perm:output:0"], "attr": {"_input_shapes": {"list": {"shape": [{"dim": [{"size": "-251"}, {"size": "-252"}, {"size": "-253"}, {"size": "-254"}]}, {"dim": [{"size": "4"}]}]}}, "T": {"type": "DT_FLOAT"}, "Tperm": {"type": "DT_INT32"}, "_output_shapes": {"list": {"shape": [{"dim": [{"size": "1"}, {"size": "1"}, {"size": "672"}, {"size": "112"}]}]}}}}, {"name": "transpose_141", "op": "Transpose", "input": ["transpose_141_x", "__inference___call___1927/transpose_141/perm:output:0"], "attr": {"Tperm": {"type": "DT_INT32"}, "T": {"type": "DT_FLOAT"}, "_input_shapes": {"list": {"shape": [{"dim": [{"size": "-223"}, {"size": "-224"}, {"size": "-225"}, {"size": "-226"}]}, {"dim": [{"size": "4"}]}]}}, "_output_shapes": {"list": {"shape": [{"dim": [{"size": "1"}, {"size": "1"}, {"size": "672"}, {"size": "28"}]}]}}}}, {"name": "transpose_144", "op": "Transpose", "input": ["transpose_144_x", "__inference___call___1927/transpose_144/perm:output:0"], "attr": {"T": {"type": "DT_FLOAT"}, "_input_shapes": {"list": {"shape": [{"dim": [{"size": "-227"}, {"size": "-228"}, {"size": "-229"}, {"size": "-230"}]}, {"dim": [{"size": "4"}]}]}}, "Tperm": {"type": "DT_INT32"}, "_output_shapes": {"list": {"shape": [{"dim": [{"size": "1"}, {"size": "1"}, {"size": "28"}, {"size": "672"}]}]}}}}, {"name": "transpose_135", "op": "Transpose", "input": ["transpose_135_x", "__inference___call___1927/transpose_135/perm:output:0"], "attr": {"_output_shapes": {"list": {"shape": [{"dim": [{"size": "1"}, {"size": "1"}, {"size": "112"}, {"size": "672"}]}]}}, "T": {"type": "DT_FLOAT"}, "Tperm": {"type": "DT_INT32"}, "_input_shapes": {"list": {"shape": [{"dim": [{"size": "-215"}, {"size": "-216"}, {"size": "-217"}, {"size": "-218"}]}, {"dim": [{"size": "4"}]}]}}}}, {"name": "transpose_138", "op": "Transpose", "input": ["transpose_138_x", "__inference___call___1927/transpose_138/perm:output:0"], "attr": {"Tperm": {"type": "DT_INT32"}, "_output_shapes": {"list": {"shape": [{"dim": [{"size": "5"}, {"size": "5"}, {"size": "1"}, {"size": "672"}]}]}}, "T": {"type": "DT_FLOAT"}, "_input_shapes": {"list": {"shape": [{"dim": [{"size": "-219"}, {"size": "-220"}, {"size": "-221"}, {"size": "-222"}]}, {"dim": [{"size": "4"}]}]}}}}, {"name": "transpose_147", "op": "Transpose", "input": ["transpose_147_x", "__inference___call___1927/transpose_147/perm:output:0"], "attr": {"Tperm": {"type": "DT_INT32"}, "_input_shapes": {"list": {"shape": [{"dim": [{"size": "-231"}, {"size": "-232"}, {"size": "-233"}, {"size": "-234"}]}, {"dim": [{"size": "4"}]}]}}, "_output_shapes": {"list": {"shape": [{"dim": [{"size": "1"}, {"size": "1"}, {"size": "672"}, {"size": "112"}]}]}}, "T": {"type": "DT_FLOAT"}}}, {"name": "transpose_126", "op": "Transpose", "input": ["transpose_126_x", "__inference___call___1927/transpose_126/perm:output:0"], "attr": {"Tperm": {"type": "DT_INT32"}, "_output_shapes": {"list": {"shape": [{"dim": [{"size": "1"}, {"size": "1"}, {"size": "480"}, {"size": "20"}]}]}}, "T": {"type": "DT_FLOAT"}, "_input_shapes": {"list": {"shape": [{"dim": [{"size": "-203"}, {"size": "-204"}, {"size": "-205"}, {"size": "-206"}]}, {"dim": [{"size": "4"}]}]}}}}, {"name": "transpose_129", "op": "Transpose", "input": ["transpose_129_x", "__inference___call___1927/transpose_129/perm:output:0"], "attr": {"_input_shapes": {"list": {"shape": [{"dim": [{"size": "-207"}, {"size": "-208"}, {"size": "-209"}, {"size": "-210"}]}, {"dim": [{"size": "4"}]}]}}, "T": {"type": "DT_FLOAT"}, "_output_shapes": {"list": {"shape": [{"dim": [{"size": "1"}, {"size": "1"}, {"size": "20"}, {"size": "480"}]}]}}, "Tperm": {"type": "DT_INT32"}}}, {"name": "transpose_111", "op": "Transpose", "input": ["transpose_111_x", "__inference___call___1927/transpose_111/perm:output:0"], "attr": {"_input_shapes": {"list": {"shape": [{"dim": [{"size": "-183"}, {"size": "-184"}, {"size": "-185"}, {"size": "-186"}]}, {"dim": [{"size": "4"}]}]}}, "Tperm": {"type": "DT_INT32"}, "T": {"type": "DT_FLOAT"}, "_output_shapes": {"list": {"shape": [{"dim": [{"size": "1"}, {"size": "1"}, {"size": "480"}, {"size": "20"}]}]}}}}, {"name": "transpose_114", "op": "Transpose", "input": ["transpose_114_x", "__inference___call___1927/transpose_114/perm:output:0"], "attr": {"T": {"type": "DT_FLOAT"}, "_input_shapes": {"list": {"shape": [{"dim": [{"size": "-187"}, {"size": "-188"}, {"size": "-189"}, {"size": "-190"}]}, {"dim": [{"size": "4"}]}]}}, "_output_shapes": {"list": {"shape": [{"dim": [{"size": "1"}, {"size": "1"}, {"size": "20"}, {"size": "480"}]}]}}, "Tperm": {"type": "DT_INT32"}}}, {"name": "transpose_105", "op": "Transpose", "input": ["transpose_105_x", "__inference___call___1927/transpose_105/perm:output:0"], "attr": {"_input_shapes": {"list": {"shape": [{"dim": [{"size": "-175"}, {"size": "-176"}, {"size": "-177"}, {"size": "-178"}]}, {"dim": [{"size": "4"}]}]}}, "_output_shapes": {"list": {"shape": [{"dim": [{"size": "1"}, {"size": "1"}, {"size": "80"}, {"size": "480"}]}]}}, "T": {"type": "DT_FLOAT"}, "Tperm": {"type": "DT_INT32"}}}, {"name": "transpose_108", "op": "Transpose", "input": ["transpose_108_x", "__inference___call___1927/transpose_108/perm:output:0"], "attr": {"_output_shapes": {"list": {"shape": [{"dim": [{"size": "3"}, {"size": "3"}, {"size": "1"}, {"size": "480"}]}]}}, "Tperm": {"type": "DT_INT32"}, "_input_shapes": {"list": {"shape": [{"dim": [{"size": "-179"}, {"size": "-180"}, {"size": "-181"}, {"size": "-182"}]}, {"dim": [{"size": "4"}]}]}}, "T": {"type": "DT_FLOAT"}}}, {"name": "transpose_117", "op": "Transpose", "input": ["transpose_117_x", "__inference___call___1927/transpose_117/perm:output:0"], "attr": {"Tperm": {"type": "DT_INT32"}, "T": {"type": "DT_FLOAT"}, "_output_shapes": {"list": {"shape": [{"dim": [{"size": "1"}, {"size": "1"}, {"size": "480"}, {"size": "80"}]}]}}, "_input_shapes": {"list": {"shape": [{"dim": [{"size": "-191"}, {"size": "-192"}, {"size": "-193"}, {"size": "-194"}]}, {"dim": [{"size": "4"}]}]}}}}, {"name": "transpose_96", "op": "Transpose", "input": ["transpose_96_x", "__inference___call___1927/transpose_96/perm:output:0"], "attr": {"Tperm": {"type": "DT_INT32"}, "T": {"type": "DT_FLOAT"}, "_input_shapes": {"list": {"shape": [{"dim": [{"size": "-163"}, {"size": "-164"}, {"size": "-165"}, {"size": "-166"}]}, {"dim": [{"size": "4"}]}]}}, "_output_shapes": {"list": {"shape": [{"dim": [{"size": "1"}, {"size": "1"}, {"size": "480"}, {"size": "20"}]}]}}}}, {"name": "transpose_99", "op": "Transpose", "input": ["transpose_99_x", "__inference___call___1927/transpose_99/perm:output:0"], "attr": {"_output_shapes": {"list": {"shape": [{"dim": [{"size": "1"}, {"size": "1"}, {"size": "20"}, {"size": "480"}]}]}}, "Tperm": {"type": "DT_INT32"}, "T": {"type": "DT_FLOAT"}, "_input_shapes": {"list": {"shape": [{"dim": [{"size": "-167"}, {"size": "-168"}, {"size": "-169"}, {"size": "-170"}]}, {"dim": [{"size": "4"}]}]}}}}, {"name": "transpose_90", "op": "Transpose", "input": ["transpose_90_x", "__inference___call___1927/transpose_90/perm:output:0"], "attr": {"Tperm": {"type": "DT_INT32"}, "T": {"type": "DT_FLOAT"}, "_output_shapes": {"list": {"shape": [{"dim": [{"size": "1"}, {"size": "1"}, {"size": "80"}, {"size": "480"}]}]}}, "_input_shapes": {"list": {"shape": [{"dim": [{"size": "-155"}, {"size": "-156"}, {"size": "-157"}, {"size": "-158"}]}, {"dim": [{"size": "4"}]}]}}}}, {"name": "transpose_93", "op": "Transpose", "input": ["transpose_93_x", "__inference___call___1927/transpose_93/perm:output:0"], "attr": {"_input_shapes": {"list": {"shape": [{"dim": [{"size": "-159"}, {"size": "-160"}, {"size": "-161"}, {"size": "-162"}]}, {"dim": [{"size": "4"}]}]}}, "T": {"type": "DT_FLOAT"}, "_output_shapes": {"list": {"shape": [{"dim": [{"size": "3"}, {"size": "3"}, {"size": "1"}, {"size": "480"}]}]}}, "Tperm": {"type": "DT_INT32"}}}, {"name": "transpose_102", "op": "Transpose", "input": ["transpose_102_x", "__inference___call___1927/transpose_102/perm:output:0"], "attr": {"T": {"type": "DT_FLOAT"}, "_output_shapes": {"list": {"shape": [{"dim": [{"size": "1"}, {"size": "1"}, {"size": "480"}, {"size": "80"}]}]}}, "_input_shapes": {"list": {"shape": [{"dim": [{"size": "-171"}, {"size": "-172"}, {"size": "-173"}, {"size": "-174"}]}, {"dim": [{"size": "4"}]}]}}, "Tperm": {"type": "DT_INT32"}}}, {"name": "transpose_81", "op": "Transpose", "input": ["transpose_81_x", "__inference___call___1927/transpose_81/perm:output:0"], "attr": {"T": {"type": "DT_FLOAT"}, "_input_shapes": {"list": {"shape": [{"dim": [{"size": "-143"}, {"size": "-144"}, {"size": "-145"}, {"size": "-146"}]}, {"dim": [{"size": "4"}]}]}}, "_output_shapes": {"list": {"shape": [{"dim": [{"size": "1"}, {"size": "1"}, {"size": "240"}, {"size": "10"}]}]}}, "Tperm": {"type": "DT_INT32"}}}, {"name": "transpose_84", "op": "Transpose", "input": ["transpose_84_x", "__inference___call___1927/transpose_84/perm:output:0"], "attr": {"T": {"type": "DT_FLOAT"}, "Tperm": {"type": "DT_INT32"}, "_output_shapes": {"list": {"shape": [{"dim": [{"size": "1"}, {"size": "1"}, {"size": "10"}, {"size": "240"}]}]}}, "_input_shapes": {"list": {"shape": [{"dim": [{"size": "-147"}, {"size": "-148"}, {"size": "-149"}, {"size": "-150"}]}, {"dim": [{"size": "4"}]}]}}}}, {"name": "transpose_66", "op": "Transpose", "input": ["transpose_66_x", "__inference___call___1927/transpose_66/perm:output:0"], "attr": {"T": {"type": "DT_FLOAT"}, "_output_shapes": {"list": {"shape": [{"dim": [{"size": "1"}, {"size": "1"}, {"size": "240"}, {"size": "10"}]}]}}, "_input_shapes": {"list": {"shape": [{"dim": [{"size": "-123"}, {"size": "-124"}, {"size": "-125"}, {"size": "-126"}]}, {"dim": [{"size": "4"}]}]}}, "Tperm": {"type": "DT_INT32"}}}, {"name": "transpose_69", "op": "Transpose", "input": ["transpose_69_x", "__inference___call___1927/transpose_69/perm:output:0"], "attr": {"_input_shapes": {"list": {"shape": [{"dim": [{"size": "-127"}, {"size": "-128"}, {"size": "-129"}, {"size": "-130"}]}, {"dim": [{"size": "4"}]}]}}, "Tperm": {"type": "DT_INT32"}, "_output_shapes": {"list": {"shape": [{"dim": [{"size": "1"}, {"size": "1"}, {"size": "10"}, {"size": "240"}]}]}}, "T": {"type": "DT_FLOAT"}}}, {"name": "transpose_60", "op": "Transpose", "input": ["transpose_60_x", "__inference___call___1927/transpose_60/perm:output:0"], "attr": {"T": {"type": "DT_FLOAT"}, "_output_shapes": {"list": {"shape": [{"dim": [{"size": "1"}, {"size": "1"}, {"size": "40"}, {"size": "240"}]}]}}, "_input_shapes": {"list": {"shape": [{"dim": [{"size": "-115"}, {"size": "-116"}, {"size": "-117"}, {"size": "-118"}]}, {"dim": [{"size": "4"}]}]}}, "Tperm": {"type": "DT_INT32"}}}, {"name": "transpose_63", "op": "Transpose", "input": ["transpose_63_x", "__inference___call___1927/transpose_63/perm:output:0"], "attr": {"_output_shapes": {"list": {"shape": [{"dim": [{"size": "5"}, {"size": "5"}, {"size": "1"}, {"size": "240"}]}]}}, "Tperm": {"type": "DT_INT32"}, "T": {"type": "DT_FLOAT"}, "_input_shapes": {"list": {"shape": [{"dim": [{"size": "-119"}, {"size": "-120"}, {"size": "-121"}, {"size": "-122"}]}, {"dim": [{"size": "4"}]}]}}}}, {"name": "transpose_72", "op": "Transpose", "input": ["transpose_72_x", "__inference___call___1927/transpose_72/perm:output:0"], "attr": {"Tperm": {"type": "DT_INT32"}, "_output_shapes": {"list": {"shape": [{"dim": [{"size": "1"}, {"size": "1"}, {"size": "240"}, {"size": "40"}]}]}}, "T": {"type": "DT_FLOAT"}, "_input_shapes": {"list": {"shape": [{"dim": [{"size": "-131"}, {"size": "-132"}, {"size": "-133"}, {"size": "-134"}]}, {"dim": [{"size": "4"}]}]}}}}, {"name": "transpose_51", "op": "Transpose", "input": ["transpose_51_x", "__inference___call___1927/transpose_51/perm:output:0"], "attr": {"Tperm": {"type": "DT_INT32"}, "T": {"type": "DT_FLOAT"}, "_input_shapes": {"list": {"shape": [{"dim": [{"size": "-103"}, {"size": "-104"}, {"size": "-105"}, {"size": "-106"}]}, {"dim": [{"size": "4"}]}]}}, "_output_shapes": {"list": {"shape": [{"dim": [{"size": "1"}, {"size": "1"}, {"size": "144"}, {"size": "6"}]}]}}}}, {"name": "transpose_54", "op": "Transpose", "input": ["transpose_54_x", "__inference___call___1927/transpose_54/perm:output:0"], "attr": {"_output_shapes": {"list": {"shape": [{"dim": [{"size": "1"}, {"size": "1"}, {"size": "6"}, {"size": "144"}]}]}}, "_input_shapes": {"list": {"shape": [{"dim": [{"size": "-107"}, {"size": "-108"}, {"size": "-109"}, {"size": "-110"}]}, {"dim": [{"size": "4"}]}]}}, "Tperm": {"type": "DT_INT32"}, "T": {"type": "DT_FLOAT"}}}, {"name": "transpose_36", "op": "Transpose", "input": ["transpose_36_x", "__inference___call___1927/transpose_36/perm:output:0"], "attr": {"T": {"type": "DT_FLOAT"}, "_input_shapes": {"list": {"shape": [{"dim": [{"size": "-83"}, {"size": "-84"}, {"size": "-85"}, {"size": "-86"}]}, {"dim": [{"size": "4"}]}]}}, "_output_shapes": {"list": {"shape": [{"dim": [{"size": "1"}, {"size": "1"}, {"size": "144"}, {"size": "6"}]}]}}, "Tperm": {"type": "DT_INT32"}}}, {"name": "transpose_39", "op": "Transpose", "input": ["transpose_39_x", "__inference___call___1927/transpose_39/perm:output:0"], "attr": {"_output_shapes": {"list": {"shape": [{"dim": [{"size": "1"}, {"size": "1"}, {"size": "6"}, {"size": "144"}]}]}}, "Tperm": {"type": "DT_INT32"}, "_input_shapes": {"list": {"shape": [{"dim": [{"size": "-87"}, {"size": "-88"}, {"size": "-89"}, {"size": "-90"}]}, {"dim": [{"size": "4"}]}]}}, "T": {"type": "DT_FLOAT"}}}, {"name": "transpose_30", "op": "Transpose", "input": ["transpose_30_x", "__inference___call___1927/transpose_30/perm:output:0"], "attr": {"T": {"type": "DT_FLOAT"}, "_input_shapes": {"list": {"shape": [{"dim": [{"size": "-75"}, {"size": "-76"}, {"size": "-77"}, {"size": "-78"}]}, {"dim": [{"size": "4"}]}]}}, "_output_shapes": {"list": {"shape": [{"dim": [{"size": "1"}, {"size": "1"}, {"size": "24"}, {"size": "144"}]}]}}, "Tperm": {"type": "DT_INT32"}}}, {"name": "transpose_33", "op": "Transpose", "input": ["transpose_33_x", "__inference___call___1927/transpose_33/perm:output:0"], "attr": {"T": {"type": "DT_FLOAT"}, "_output_shapes": {"list": {"shape": [{"dim": [{"size": "3"}, {"size": "3"}, {"size": "1"}, {"size": "144"}]}]}}, "_input_shapes": {"list": {"shape": [{"dim": [{"size": "-79"}, {"size": "-80"}, {"size": "-81"}, {"size": "-82"}]}, {"dim": [{"size": "4"}]}]}}, "Tperm": {"type": "DT_INT32"}}}, {"name": "transpose_42", "op": "Transpose", "input": ["transpose_42_x", "__inference___call___1927/transpose_42/perm:output:0"], "attr": {"T": {"type": "DT_FLOAT"}, "_input_shapes": {"list": {"shape": [{"dim": [{"size": "-91"}, {"size": "-92"}, {"size": "-93"}, {"size": "-94"}]}, {"dim": [{"size": "4"}]}]}}, "_output_shapes": {"list": {"shape": [{"dim": [{"size": "1"}, {"size": "1"}, {"size": "144"}, {"size": "24"}]}]}}, "Tperm": {"type": "DT_INT32"}}}, {"name": "transpose_21", "op": "Transpose", "input": ["transpose_21_x", "__inference___call___1927/transpose_21/perm:output:0"], "attr": {"Tperm": {"type": "DT_INT32"}, "T": {"type": "DT_FLOAT"}, "_output_shapes": {"list": {"shape": [{"dim": [{"size": "1"}, {"size": "1"}, {"size": "96"}, {"size": "4"}]}]}}, "_input_shapes": {"list": {"shape": [{"dim": [{"size": "-63"}, {"size": "-64"}, {"size": "-65"}, {"size": "-66"}]}, {"dim": [{"size": "4"}]}]}}}}, {"name": "transpose_24", "op": "Transpose", "input": ["transpose_24_x", "__inference___call___1927/transpose_24/perm:output:0"], "attr": {"_output_shapes": {"list": {"shape": [{"dim": [{"size": "1"}, {"size": "1"}, {"size": "4"}, {"size": "96"}]}]}}, "_input_shapes": {"list": {"shape": [{"dim": [{"size": "-67"}, {"size": "-68"}, {"size": "-69"}, {"size": "-70"}]}, {"dim": [{"size": "4"}]}]}}, "T": {"type": "DT_FLOAT"}, "Tperm": {"type": "DT_INT32"}}}, {"name": "transpose_6", "op": "Transpose", "input": ["transpose_6_x", "__inference___call___1927/transpose_6/perm:output:0"], "attr": {"Tperm": {"type": "DT_INT32"}, "T": {"type": "DT_FLOAT"}, "_input_shapes": {"list": {"shape": [{"dim": [{"size": "-43"}, {"size": "-44"}, {"size": "-45"}, {"size": "-46"}]}, {"dim": [{"size": "4"}]}]}}, "_output_shapes": {"list": {"shape": [{"dim": [{"size": "1"}, {"size": "1"}, {"size": "32"}, {"size": "8"}]}]}}}}, {"name": "transpose_9", "op": "Transpose", "input": ["transpose_9_x", "__inference___call___1927/transpose_9/perm:output:0"], "attr": {"_input_shapes": {"list": {"shape": [{"dim": [{"size": "-47"}, {"size": "-48"}, {"size": "-49"}, {"size": "-50"}]}, {"dim": [{"size": "4"}]}]}}, "_output_shapes": {"list": {"shape": [{"dim": [{"size": "1"}, {"size": "1"}, {"size": "8"}, {"size": "32"}]}]}}, "Tperm": {"type": "DT_INT32"}, "T": {"type": "DT_FLOAT"}}}, {"name": "onnx_tf_prefix_Unsqueeze_0", "op": "ExpandDims", "input": ["melspectrogram", "__inference___call___1927/onnx_tf_prefix_Unsqueeze_0/dim:output:0"], "attr": {"_output_shapes": {"list": {"shape": [{"dim": [{"size": "64"}, {"size": "1"}, {"size": "128"}, {"size": "96"}]}]}}, "Tdim": {"type": "DT_INT32"}, "T": {"type": "DT_FLOAT"}}}, {"name": "transpose", "op": "Transpose", "input": ["transpose_x", "__inference___call___1927/transpose/perm:output:0"], "attr": {"_output_shapes": {"list": {"shape": [{"dim": [{"size": "3"}, {"size": "3"}, {"size": "1"}, {"size": "32"}]}]}}, "_input_shapes": {"list": {"shape": [{"dim": [{"size": "-35"}, {"size": "-36"}, {"size": "-37"}, {"size": "-38"}]}, {"dim": [{"size": "4"}]}]}}, "Tperm": {"type": "DT_INT32"}, "T": {"type": "DT_FLOAT"}}}, {"name": "transpose_3", "op": "Transpose", "input": ["transpose_3_x", "__inference___call___1927/transpose_3/perm:output:0"], "attr": {"Tperm": {"type": "DT_INT32"}, "T": {"type": "DT_FLOAT"}, "_input_shapes": {"list": {"shape": [{"dim": [{"size": "-39"}, {"size": "-40"}, {"size": "-41"}, {"size": "-42"}]}, {"dim": [{"size": "4"}]}]}}, "_output_shapes": {"list": {"shape": [{"dim": [{"size": "3"}, {"size": "3"}, {"size": "1"}, {"size": "32"}]}]}}}}, {"name": "transpose_12", "op": "Transpose", "input": ["transpose_12_x", "__inference___call___1927/transpose_12/perm:output:0"], "attr": {"_output_shapes": {"list": {"shape": [{"dim": [{"size": "1"}, {"size": "1"}, {"size": "32"}, {"size": "16"}]}]}}, "T": {"type": "DT_FLOAT"}, "_input_shapes": {"list": {"shape": [{"dim": [{"size": "-51"}, {"size": "-52"}, {"size": "-53"}, {"size": "-54"}]}, {"dim": [{"size": "4"}]}]}}, "Tperm": {"type": "DT_INT32"}}}, {"name": "transpose_15", "op": "Transpose", "input": ["transpose_15_x", "__inference___call___1927/transpose_15/perm:output:0"], "attr": {"T": {"type": "DT_FLOAT"}, "_input_shapes": {"list": {"shape": [{"dim": [{"size": "-55"}, {"size": "-56"}, {"size": "-57"}, {"size": "-58"}]}, {"dim": [{"size": "4"}]}]}}, "_output_shapes": {"list": {"shape": [{"dim": [{"size": "1"}, {"size": "1"}, {"size": "16"}, {"size": "96"}]}]}}, "Tperm": {"type": "DT_INT32"}}}, {"name": "transpose_18", "op": "Transpose", "input": ["transpose_18_x", "__inference___call___1927/transpose_18/perm:output:0"], "attr": {"_output_shapes": {"list": {"shape": [{"dim": [{"size": "3"}, {"size": "3"}, {"size": "1"}, {"size": "96"}]}]}}, "_input_shapes": {"list": {"shape": [{"dim": [{"size": "-59"}, {"size": "-60"}, {"size": "-61"}, {"size": "-62"}]}, {"dim": [{"size": "4"}]}]}}, "Tperm": {"type": "DT_INT32"}, "T": {"type": "DT_FLOAT"}}}, {"name": "transpose_27", "op": "Transpose", "input": ["transpose_27_x", "__inference___call___1927/transpose_27/perm:output:0"], "attr": {"_input_shapes": {"list": {"shape": [{"dim": [{"size": "-71"}, {"size": "-72"}, {"size": "-73"}, {"size": "-74"}]}, {"dim": [{"size": "4"}]}]}}, "T": {"type": "DT_FLOAT"}, "_output_shapes": {"list": {"shape": [{"dim": [{"size": "1"}, {"size": "1"}, {"size": "96"}, {"size": "24"}]}]}}, "Tperm": {"type": "DT_INT32"}}}, {"name": "transpose_45", "op": "Transpose", "input": ["transpose_45_x", "__inference___call___1927/transpose_45/perm:output:0"], "attr": {"_output_shapes": {"list": {"shape": [{"dim": [{"size": "1"}, {"size": "1"}, {"size": "24"}, {"size": "144"}]}]}}, "_input_shapes": {"list": {"shape": [{"dim": [{"size": "-95"}, {"size": "-96"}, {"size": "-97"}, {"size": "-98"}]}, {"dim": [{"size": "4"}]}]}}, "T": {"type": "DT_FLOAT"}, "Tperm": {"type": "DT_INT32"}}},…
, {"size": "1"}, {"size": "1"}]}]}}}}, "84": {"attr": {"_output_shapes": {"list": {"shape": [{"dim": [{"size": "480"}]}]}}}}, "108": {"attr": {"_output_shapes": {"list": {"shape": [{"dim": [{"size": "672"}]}]}}}}, "45": {"attr": {"_output_shapes": {"list": {"shape": [{"dim": [{"size": "10"}, {"size": "240"}, {"size": "1"}, {"size": "1"}]}]}}}}, "135": {"attr": {"_output_shapes": {"list": {"shape": [{"dim": [{"size": "48"}, {"size": "1152"}, {"size": "1"}, {"size": "1"}]}]}}}}, "37": {"attr": {"_output_shapes": {"list": {"shape": [{"dim": [{"size": "144"}, {"size": "6"}, {"size": "1"}, {"size": "1"}]}]}}}}, "57": {"attr": {"_output_shapes": {"list": {"shape": [{"dim": [{"size": "240"}, {"size": "10"}, {"size": "1"}, {"size": "1"}]}]}}}}, "34": {"attr": {"_output_shapes": {"list": {"shape": [{"dim": [{"size": "144"}]}]}}}}, "115": {"attr": {"_output_shapes": {"list": {"shape": [{"dim": [{"size": "28"}, {"size": "672"}, {"size": "1"}, {"size": "1"}]}]}}}}, "43": {"attr": {"_output_shapes": {"list": {"shape": [{"dim": [{"size": "240"}, {"size": "1"}, {"size": "5"}, {"size": "5"}]}]}}}}, "12": {"attr": {"_output_shapes": {"list": {"shape": [{"dim": [{"size": "96"}]}]}}}}, "65": {"attr": {"_output_shapes": {"list": {"shape": [{"dim": [{"size": "20"}, {"size": "480"}, {"size": "1"}, {"size": "1"}]}]}}}}, "86": {"attr": {"_output_shapes": {"list": {"shape": [{"dim": [{"size": "20"}]}]}}}}, "140": {"attr": {"_output_shapes": {"list": {"shape": [{"dim": [{"size": "192"}]}]}}}}, "64": {"attr": {"_output_shapes": {"list": {"shape": [{"dim": [{"size": "480"}]}]}}}}, "130": {"attr": {"_output_shapes": {"list": {"shape": [{"dim": [{"size": "192"}]}]}}}}, "79": {"attr": {"_output_shapes": {"list": {"shape": [{"dim": [{"size": "80"}, {"size": "480"}, {"size": "1"}, {"size": "1"}]}]}}}}, "163": {"attr": {"_output_shapes": {"list": {"shape": [{"dim": [{"size": "400"}, {"size": "1280"}]}]}}}}, "42": {"attr": {"_output_shapes": {"list": {"shape": [{"dim": [{"size": "240"}]}]}}}}, "62": {"attr": {"_output_shapes": {"list": {"shape": [{"dim": [{"size": "480"}]}]}}}}, "58": {"attr": {"_output_shapes": {"list": {"shape": [{"dim": [{"size": "240"}]}]}}}}, "104": {"attr": {"_output_shapes": {"list": {"shape": [{"dim": [{"size": "672"}]}]}}}}, "125": {"attr": {"_output_shapes": {"list": {"shape": [{"dim": [{"size": "48"}, {"size": "1152"}, {"size": "1"}, {"size": "1"}]}]}}}}, "1": {"attr": {"_output_shapes": {"list": {"shape": [{"dim": [{"size": "32"}, {"size": "1"}, {"size": "3"}, {"size": "3"}]}]}}}}, "134": {"attr": {"_output_shapes": {"list": {"shape": [{"dim": [{"size": "1152"}]}]}}}}, "158": {"attr": {"_output_shapes": {"list": {"shape": [{"dim": [{"size": "1152"}]}]}}}}, "76": {"attr": {"_output_shapes": {"list": {"shape": [{"dim": [{"size": "20"}]}]}}}}, "154": {"attr": {"_output_shapes": {"list": {"shape": [{"dim": [{"size": "1152"}]}]}}}}, "55": {"attr": {"_output_shapes": {"list": {"shape": [{"dim": [{"size": "10"}, {"size": "240"}, {"size": "1"}, {"size": "1"}]}]}}}}, "88": {"attr": {"_output_shapes": {"list": {"shape": [{"dim": [{"size": "480"}]}]}}}}, "33": {"attr": {"_output_shapes": {"list": {"shape": [{"dim": [{"size": "144"}, {"size": "1"}, {"size": "5"}, {"size": "5"}]}]}}}}, "26": {"attr": {"_output_shapes": {"list": {"shape": [{"dim": [{"size": "6"}]}]}}}}, "80": {"attr": {"_output_shapes": {"list": {"shape": [{"dim": [{"size": "80"}]}]}}}}, "22": {"attr": {"_output_shapes": {"list": {"shape": [{"dim": [{"size": "144"}]}]}}}}, "28": {"attr": {"_output_shapes": {"list": {"shape": [{"dim": [{"size": "144"}]}]}}}}, "56": {"attr": {"_output_shapes": {"list": {"shape": [{"dim": [{"size": "10"}]}]}}}}, "103": {"attr": {"_output_shapes": {"list": {"shape": [{"dim": [{"size": "672"}, {"size": "1"}, {"size": "5"}, {"size": "5"}]}]}}}}, "114": {"attr": {"_output_shapes": {"list": {"shape": [{"dim": [{"size": "672"}]}]}}}}, "132": {"attr": {"_output_shapes": {"list": {"shape": [{"dim": [{"size": "1152"}]}]}}}}, "82": {"attr": {"_output_shapes": {"list": {"shape": [{"dim": [{"size": "480"}]}]}}}}, "96": {"attr": {"_output_shapes": {"list": {"shape": [{"dim": [{"size": "28"}]}]}}}}, "27": {"attr": {"_output_shapes": {"list": {"shape": [{"dim": [{"size": "144"}, {"size": "6"}, {"size": "1"}, {"size": "1"}]}]}}}}, "113": {"attr": {"_output_shapes": {"list": {"shape": [{"dim": [{"size": "672"}, {"size": "1"}, {"size": "5"}, {"size": "5"}]}]}}}}, "127": {"attr": {"_output_shapes": {"list": {"shape": [{"dim": [{"size": "1152"}, {"size": "48"}, {"size": "1"}, {"size": "1"}]}]}}}}, "138": {"attr": {"_output_shapes": {"list": {"shape": [{"dim": [{"size": "1152"}]}]}}}}, "47": {"attr": {"_output_shapes": {"list": {"shape": [{"dim": [{"size": "240"}, {"size": "10"}, {"size": "1"}, {"size": "1"}]}]}}}}, "90": {"attr": {"_output_shapes": {"list": {"shape": [{"dim": [{"size": "112"}]}]}}}}, "18": {"attr": {"_output_shapes": {"list": {"shape": [{"dim": [{"size": "96"}]}]}}}}, "68": {"attr": {"_output_shapes": {"list": {"shape": [{"dim": [{"size": "480"}]}]}}}}, "148": {"attr": {"_output_shapes": {"list": {"shape": [{"dim": [{"size": "1152"}]}]}}}}, "126": {"attr": {"_output_shapes": {"list": {"shape": [{"dim": [{"size": "48"}]}]}}}}, "46": {"attr": {"_output_shapes": {"list": {"shape": [{"dim": [{"size": "10"}]}]}}}}, "48": {"attr": {"_output_shapes": {"list": {"shape": [{"dim": [{"size": "240"}]}]}}}}, "119": {"attr": {"_output_shapes": {"list": {"shape": [{"dim": [{"size": "192"}, {"size": "672"}, {"size": "1"}, {"size": "1"}]}]}}}}, "52": {"attr": {"_output_shapes": {"list": {"shape": [{"dim": [{"size": "240"}]}]}}}}, "59": {"attr": {"_output_shapes": {"list": {"shape": [{"dim": [{"size": "80"}, {"size": "240"}, {"size": "1"}, {"size": "1"}]}]}}}}, "73": {"attr": {"_output_shapes": {"list": {"shape": [{"dim": [{"size": "480"}, {"size": "1"}, {"size": "3"}, {"size": "3"}]}]}}}}, "49": {"attr": {"_output_shapes": {"list": {"shape": [{"dim": [{"size": "40"}, {"size": "240"}, {"size": "1"}, {"size": "1"}]}]}}}}, "147": {"attr": {"_output_shapes": {"list": {"shape": [{"dim": [{"size": "1152"}, {"size": "48"}, {"size": "1"}, {"size": "1"}]}]}}}}, "67": {"attr": {"_output_shapes": {"list": {"shape": [{"dim": [{"size": "480"}, {"size": "20"}, {"size": "1"}, {"size": "1"}]}]}}}}, "149": {"attr": {"_output_shapes": {"list": {"shape": [{"dim": [{"size": "192"}, {"size": "1152"}, {"size": "1"}, {"size": "1"}]}]}}}}, "10": {"attr": {"_output_shapes": {"list": {"shape": [{"dim": [{"size": "16"}]}]}}}}, "146": {"attr": {"_output_shapes": {"list": {"shape": [{"dim": [{"size": "48"}]}]}}}}, "156": {"attr": {"_output_shapes": {"list": {"shape": [{"dim": [{"size": "48"}]}]}}}}, "66": {"attr": {"_output_shapes": {"list": {"shape": [{"dim": [{"size": "20"}]}]}}}}, "145": {"attr": {"_output_shapes": {"list": {"shape": [{"dim": [{"size": "48"}, {"size": "1152"}, {"size": "1"}, {"size": "1"}]}]}}}}, "133": {"attr": {"_output_shapes": {"list": {"shape": [{"dim": [{"size": "1152"}, {"size": "1"}, {"size": "5"}, {"size": "5"}]}]}}}}, "5": {"attr": {"_output_shapes": {"list": {"shape": [{"dim": [{"size": "8"}, {"size": "32"}, {"size": "1"}, {"size": "1"}]}]}}}}, "123": {"attr": {"_output_shapes": {"list": {"shape": [{"dim": [{"size": "1152"}, {"size": "1"}, {"size": "5"}, {"size": "5"}]}]}}}}, "116": {"attr": {"_output_shapes": {"list": {"shape": [{"dim": [{"size": "28"}]}]}}}}, "40": {"attr": {"_output_shapes": {"list": {"shape": [{"dim": [{"size": "40"}]}]}}}}, "3": {"attr": {"_output_shapes": {"list": {"shape": [{"dim": [{"size": "32"}, {"size": "1"}, {"size": "3"}, {"size": "3"}]}]}}}}, "124": {"attr": {"_output_shapes": {"list": {"shape": [{"dim": [{"size": "1152"}]}]}}}}, "11": {"attr": {"_output_shapes": {"list": {"shape": [{"dim": [{"size": "96"}, {"size": "16"}, {"size": "1"}, {"size": "1"}]}]}}}}, "152": {"attr": {"_output_shapes": {"list": {"shape": [{"dim": [{"size": "1152"}]}]}}}}, "14": {"attr": {"_output_shapes": {"list": {"shape": [{"dim": [{"size": "96"}]}]}}}}, "72": {"attr": {"_output_shapes": {"list": {"shape": [{"dim": [{"size": "480"}]}]}}}}, "30": {"attr": {"_output_shapes": {"list": {"shape": [{"dim": [{"size": "24"}]}]}}}}, "25": {"attr": {"_output_shapes": {"list": {"shape": [{"dim": [{"size": "6"}, {"size": "144"}, {"size": "1"}, {"size": "1"}]}]}}}}, "157": {"attr": {"_output_shapes": {"list": {"shape": [{"dim": [{"size": "1152"}, {"size": "48"}, {"size": "1"}, {"size": "1"}]}]}}}}, "101": {"attr": {"_output_shapes": {"list": {"shape": [{"dim": [{"size": "672"}, {"size": "112"}, {"size": "1"}, {"size": "1"}]}]}}}}, "112": {"attr": {"_output_shapes": {"list": {"shape": [{"dim": [{"size": "672"}]}]}}}}, "142": {"attr": {"_output_shapes": {"list": {"shape": [{"dim": [{"size": "1152"}]}]}}}}, "39": {"attr": {"_output_shapes": {"list": {"shape": [{"dim": [{"size": "40"}, {"size": "144"}, {"size": "1"}, {"size": "1"}]}]}}}}, "61": {"attr": {"_output_shapes": {"list": {"shape": [{"dim": [{"size": "480"}, {"size": "80"}, {"size": "1"}, {"size": "1"}]}]}}}}, "160": {"attr": {"_output_shapes": {"list": {"shape": [{"dim": [{"size": "320"}]}]}}}}, "137": {"attr": {"_output_shapes": {"list": {"shape": [{"dim": [{"size": "1152"}, {"size": "48"}, {"size": "1"}, {"size": "1"}]}]}}}}, "144": {"attr": {"_output_shapes": {"list": {"shape": [{"dim": [{"size": "1152"}]}]}}}}, "153": {"attr": {"_output_shapes": {"list": {"shape": [{"dim": [{"size": "1152"}, {"size": "1"}, {"size": "3"}, {"size": "3"}]}]}}}}, "15": {"attr": {"_output_shapes": {"list": {"shape": [{"dim": [{"size": "4"}, {"size": "96"}, {"size": "1"}, {"size": "1"}]}]}}}}, "31": {"attr": {"_output_shapes": {"list": {"shape": [{"dim": [{"size": "144"}, {"size": "24"}, {"size": "1"}, {"size": "1"}]}]}}}}, "74": {"attr": {"_output_shapes": {"list": {"shape": [{"dim": [{"size": "480"}]}]}}}}, "50": {"attr": {"_output_shapes": {"list": {"shape": [{"dim": [{"size": "40"}]}]}}}}, "131": {"attr": {"_output_shapes": {"list": {"shape": [{"dim": [{"size": "1152"}, {"size": "192"}, {"size": "1"}, {"size": "1"}]}]}}}}, "44": {"attr": {"_output_shapes": {"list": {"shape": [{"dim": [{"size": "240"}]}]}}}}, "95": {"attr": {"_output_shapes": {"list": {"shape": [{"dim": [{"size": "28"}, {"size": "672"}, {"size": "1"}, {"size": "1"}]}]}}}}, "53": {"attr": {"_output_shapes": {"list": {"shape": [{"dim": [{"size": "240"}, {"size": "1"}, {"size": "3"}, {"size": "3"}]}]}}}}, "17": {"attr": {"_output_shapes": {"list": {"shape": [{"dim": [{"size": "96"}, {"size": "4"}, {"size": "1"}, {"size": "1"}]}]}}}}, "89": {"attr": {"_output_shapes": {"list": {"shape": [{"dim": [{"size": "112"}, {"size": "480"}, {"size": "1"}, {"size": "1"}]}]}}}}, "122": {"attr": {"_output_shapes": {"list": {"shape": [{"dim": [{"size": "1152"}]}]}}}}, "9": {"attr": {"_output_shapes": {"list": {"shape": [{"dim": [{"size": "16"}, {"size": "32"}, {"size": "1"}, {"size": "1"}]}]}}}}, "70": {"attr": {"_output_shapes": {"list": {"shape": [{"dim": [{"size": "80"}]}]}}}}, "87": {"attr": {"_output_shapes": {"list": {"shape": [{"dim": [{"size": "480"}, {"size": "20"}, {"size": "1"}, {"size": "1"}]}]}}}}, "78": {"attr": {"_output_shapes": {"list": {"shape": [{"dim": [{"size": "480"}]}]}}}}, "23": {"attr": {"_output_shapes": {"list": {"shape": [{"dim": [{"size": "144"}, {"size": "1"}, {"size": "3"}, {"size": "3"}]}]}}}}, "41": {"attr": {"_output_shapes": {"list": {"shape": [{"dim": [{"size": "240"}, {"size": "40"}, {"size": "1"}, {"size": "1"}]}]}}}}, "32": {"attr": {"_output_shapes": {"list": {"shape": [{"dim": [{"size": "144"}]}]}}}}, "19": {"attr": {"_output_shapes": {"list": {"shape": [{"dim": [{"size": "24"}, {"size": "96"}, {"size": "1"}, {"size": "1"}]}]}}}}, "106": {"attr": {"_output_shapes": {"list": {"shape": [{"dim": [{"size": "28"}]}]}}}}, "100": {"attr": {"_output_shapes": {"list": {"shape": [{"dim": [{"size": "112"}]}]}}}}, "13": {"attr": {"_output_shapes": {"list": {"shape": [{"dim": [{"size": "96"}, {"size": "1"}, {"size": "3"}, {"size": "3"}]}]}}}}, "94": {"attr": {"_output_shapes": {"list": {"shape": [{"dim": [{"size": "672"}]}]}}}}, "111": {"attr": {"_output_shapes": {"list": {"shape": [{"dim": [{"size": "672"}, {"size": "112"}, {"size": "1"}, {"size": "1"}]}]}}}}, "92": {"attr": {"_output_shapes": {"list": {"shape": [{"dim": [{"size": "672"}]}]}}}}, "117": {"attr": {"_output_shapes": {"list": {"shape": [{"dim": [{"size": "672"}, {"size": "28"}, {"size": "1"}, {"size": "1"}]}]}}}}, "24": {"attr": {"_output_shapes": {"list": {"shape": [{"dim": [{"size": "144"}]}]}}}}, "4": {"attr": {"_output_shapes": {"list": {"shape": [{"dim": [{"size": "32"}]}]}}}}, "155": {"attr": {"_output_shapes": {"list": {"shape": [{"dim": [{"size": "48"}, {"size": "1152"}, {"size": "1"}, {"size": "1"}]}]}}}}, "6": {"attr": {"_output_shapes": {"list": {"shape": [{"dim": [{"size": "8"}]}]}}}}, "75": {"attr": {"_output_shapes": {"list": {"shape": [{"dim": [{"size": "20"}, {"size": "480"}, {"size": "1"}, {"size": "1"}]}]}}}}, "63": {"attr": {"_output_shapes": {"list": {"shape": [{"dim": [{"size": "480"}, {"size": "1"}, {"size": "3"}, {"size": "3"}]}]}}}}, "141": {"attr": {"_output_shapes": {"list": {"shape": [{"dim": [{"size": "1152"}, {"size": "192"}, {"size": "1"}, {"size": "1"}]}]}}}}, "139": {"attr": {"_output_shapes": {"list": {"shape": [{"dim": [{"size": "192"}, {"size": "1152"}, {"size": "1"}, {"size": "1"}]}]}}}}, "91": {"attr": {"_output_shapes": {"list": {"shape": [{"dim": [{"size": "672"}, {"size": "112"}, {"size": "1"}, {"size": "1"}]}]}}}}, "2": {"attr": {"_output_shapes": {"list": {"shape": [{"dim": [{"size": "32"}]}]}}}}, "16": {"attr": {"_output_shapes": {"list": {"shape": [{"dim": [{"size": "4"}]}]}}}}}}]}, "versions": {"producer": 987, "minConsumer": 12}}, "weightsManifest": [{"paths": ["group1-shard1of5.bin", "group1-shard2of5.bin", "group1-shard3of5.bin", "group1-shard4of5.bin", "group1-shard5of5.bin"], "weights": [{"name": "Const", "shape": [32, 1, 3, 3], "dtype": "float32"}, {"name": "Const_1", "shape": [32], "dtype": "float32"}, {"name": "Const_2", "shape": [32, 1, 3, 3], "dtype": "float32"}, {"name": "Const_3", "shape": [32], "dtype": "float32"}, {"name": "Const_4", "shape": [8, 32, 1, 1], "dtype": "float32"}, {"name": "Const_5", "shape": [8], "dtype": "float32"}, {"name": "Const_6", "shape": [32, 8, 1, 1], "dtype": "float32"}, {"name": "Const_7", "shape": [32], "dtype": "float32"}, {"name": "Const_8", "shape": [16, 32, 1, 1], "dtype": "float32"}, {"name": "Const_9", "shape": [16], "dtype": "float32"}, {"name": "Const_10", "shape": [96, 16, 1, 1], "dtype": "float32"}, {"name": "Const_11", "shape": [96], "dtype": "float32"}, {"name": "Const_12", "shape": [96, 1, 3, 3], "dtype": "float32"}, {"name": "Const_13", "shape": [96], "dtype": "float32"}, {"name": "Const_14", "shape": [4, 96, 1, 1], "dtype": "float32"}, {"name": "Const_15", "shape": [4], "dtype": "float32"}, {"name": "Const_16", "shape": [96, 4, 1, 1], "dtype": "float32"}, {"name": "Const_17", "shape": [96], "dtype": "float32"}, {"name": "Const_18", "shape": [24, 96, 1, 1], "dtype": "float32"}, {"name": "Const_19", "shape": [24], "dtype": "float32"}, {"name": "Const_20", "shape": [144, 24, 1, 1], "dtype": "float32"}, {"name": "Const_21", "shape": [144], "dtype": "float32"}, {"name": "Const_22", "shape": [144, 1, 3, 3], "dtype": "float32"}, {"name": "Const_23", "shape": [144], "dtype": "float32"}, {"name": "Const_24", "shape": [6, 144, 1, 1], "dtype": "float32"}, {"name": "Const_25", "shape": [6], "dtype": "float32"}, {"name": "Const_26", "shape": [144, 6, 1, 1], "dtype": "float32"}, {"name": "Const_27", "shape": [144], "dtype": "float32"}, {"name": "Const_28", "shape": [24, 144, 1, 1], "dtype": "float32"}, {"name": "Const_29", "shape": [24], "dtype": "float32"}, {"name": "Const_30", "shape": [144, 24, 1, 1], "dtype": "float32"}, {"name": "Const_31", "shape": [144], "dtype": "float32"}, {"name": "Const_32", "shape": [144, 1, 5, 5], "dtype": "float32"}, {"name": "Const_33", "shape": [144], "dtype": "float32"}, {"name": "Const_34", "shape": [6, 144, 1, 1], "dtype": "float32"}, {"name": "Const_35", "shape": [6], "dtype": "float32"}, {"name": "Const_36", "shape": [144, 6, 1, 1], "dtype": "float32"}, {"name": "Const_37", "shape": [144], "dtype": "float32"}, {"name": "Const_38", "shape": [40, 144, 1, 1], "dtype": "float32"}, {"name": "Const_39", "shape": [40], "dtype": "float32"}, {"name": "Const_40", "shape": [240, 40, 1, 1], "dtype": "float32"}, {"name": "Const_41", "shape": [240], "dtype": "float32"}, {"name": "Const_42", "shape": [240, 1, 5, 5], "dtype": "float32"}, {"name": "Const_43", "shape": [240], "dtype": "float32"}, {"name": "Const_44", "shape": [10, 240, 1, 1], "dtype": "float32"}, {"name": "Const_45", "shape": [10], "dtype": "float32"}, {"name": "Const_46", "shape": [240, 10, 1, 1], "dtype": "float32"}, {"name": "Const_47", "shape": [240], "dtype": "float32"}, {"name": "Const_48", "shape": [40, 240, 1, 1], "dtype": "float32"}, {"name": "Const_49", "shape": [40], "dtype": "float32"}, {"name": "Const_50", "shape": [240, 40, 1, 1], "dtype": "float32"}, {"name": "Const_51", "shape": [240], "dtype": "float32"}, {"name": "Const_52", "shape": [240, 1, 3, 3], "dtype": "float32"}, {"name": "Const_53", "shape": [240], "dtype": "float32"}, {"name": "Const_54", "shape": [10, 240, 1, 1], "dtype": "float32"}, {"name": "Const_55", "shape": [10], "dtype": "float32"}, {"name": "Const_56", "shape": [240, 10, 1, 1], "dtype": "float32"}, {"name": "Const_57", "shape": [240], "dtype": "float32"}, {"name": "Const_58", "shape": [80, 240, 1, 1], "dtype": "float32"}, {"name": "Const_59", "shape": [80], "dtype": "float32"}, {"name": "Const_60", "shape": [480, 80, 1, 1], "dtype": "float32"}, {"name": "Const_61", "shape": [480], "dtype": "float32"}, {"name": "Const_62", "shape": [480, 1, 3, 3], "dtype": "float32"}, {"name": "Const_63", "shape": [480], "dtype": "float32"}, {"name": "Const_64", "shape": [20, 480, 1, 1], "dtype": "float32"}, {"name": "Const_65", "shape": [20], "dtype": "float32"}, {"name": "Const_66", "shape": [480, 20, 1, 1], "dtype": "float32"}, {"name": "Const_67", "shape": [480], "dtype": "float32"}, {"name": "Const_68", "shape": [80, 480, 1, 1], "dtype": "float32"}, {"name": "Const_69", "shape": [80], "dtype": "float32"}, {"name": "Const_70", "shape": [480, 80, 1, 1], "dtype": "float32"}, {"name": "Const_71", "shape": [480], "dtype": "float32"}, {"name": "Const_72", "shape": [480, 1, 3, 3], "dtype": "float32"}, {"name": "Const_73", "shape": [480], "dtype": "float32"}, {"name": "Const_74", "shape": [20, 480, 1, 1], "dtype": "float32"}, {"name": "Const_75", "shape": [20], "dtype": "float32"}, {"name": "Const_76", "shape": [480, 20, 1, 1], "dtype": "float32"}, {"name": "Const_77", "shape": [480], "dtype": "float32"}, {"name": "Const_78", "shape": [80, 480, 1, 1], "dtype": "float32"}, {"name": "Const_79", "shape": [80], "dtype": "float32"}, {"name": "Const_80", "shape": [480, 80, 1, 1], "dtype": "float32"}, {"name": "Const_81", "shape": [480], "dtype": "float32"}, {"name": "Const_82", "shape": [480, 1, 5, 5], "dtype": "float32"}, {"name": "Const_83", "shape": [480], "dtype": "float32"}, {"name": "Const_84", "shape": [20, 480, 1, 1], "dtype": "float32"}, {"name": "Const_85", "shape": [20], "dtype": "float32"}, {"name": "Const_86", "shape": [480, 20, 1, 1], "dtype": "float32"}, {"name": "Const_87", "shape": [480], "dtype": "float32"}, {"name": "Const_88", "shape": [112, 480, 1, 1], "dtype": "float32"}, {"name": "Const_89", "shape": [112], "dtype": "float32"}, {"name": "Const_90", "shape": [672, 112, 1, 1], "dtype": "float32"}, {"name": "Const_91", "shape": [672], "dtype": "float32"}, {"name": "Const_92", "shape": [672, 1, 5, 5], "dtype": "float32"}, {"name": "Const_93", "shape": [672], "dtype": "float32"}, {"name": "Const_94", "shape": [28, 672, 1, 1], "dtype": "float32"}, {"name": "Const_95", "shape": [28], "dtype": "float32"}, {"name": "Const_96", "shape": [672, 28, 1, 1], "dtype": "float32"}, {"name": "Const_97", "shape": [672], "dtype": "float32"}, {"name": "Const_98", "shape": [112, 672, 1, 1], "dtype": "float32"}, {"name": "Const_99", "shape": [112], "dtype": "float32"}, {"name": "Const_100", "shape": [672, 112, 1, 1], "dtype": "float32"}, {"name": "Const_101", "shape": [672], "dtype": "float32"}, {"name": "Const_102", "shape": [672, 1, 5, 5], "dtype": "float32"}, {"name": "Const_103", "shape": [672], "dtype": "float32"}, {"name": "Const_104", "shape": [28, 672, 1, 1], "dtype": "float32"}, {"name": "Const_105", "shape": [28], "dtype": "float32"}, {"name": "Const_106", "shape": [672, 28, 1, 1], "dtype": "float32"}, {"name": "Const_107", "shape": [672], "dtype": "float32"}, {"name": "Const_108", "shape": [112, 672, 1, 1], "dtype": "float32"}, {"name": "Const_109", "shape": [112], "dtype": "float32"}, {"name": "Const_110", "shape": [672, 112, 1, 1], "dtype": "float32"}, {"name": "Const_111", "shape": [672], "dtype": "float32"}, {"name": "Const_112", "shape": [672, 1, 5, 5], "dtype": "float32"}, {"name": "Const_113", "shape": [672], "dtype": "float32"}, {"name": "Const_114", "shape": [28, 672, 1, 1], "dtype": "float32"}, {"name": "Const_115", "shape": [28], "dtype": "float32"}, {"name": "Const_116", "shape": [672, 28, 1, 1], "dtype": "float32"}, {"name": "Const_117", "shape": [672], "dtype": "float32"}, {"name": "Const_118", "shape": [192, 672, 1, 1], "dtype": "float32"}, {"name": "Const_119", "shape": [192], "dtype": "float32"}, {"name": "Const_120", "shape": [1152, 192, 1, 1], "dtype": "float32"}, {"name": "Const_121", "shape": [1152], "dtype": "float32"}, {"name": "Const_122", "shape": [1152, 1, 5, 5], "dtype": "float32"}, {"name": "Const_123", "shape": [1152], "dtype": "float32"}, {"name": "Const_124", "shape": [48, 1152, 1, 1], "dtype": "float32"}, {"name": "Const_125", "shape": [48], "dtype": "float32"}, {"name": "Const_126", "shape": [1152, 48, 1, 1], "dtype": "float32"}, {"name": "Const_127", "shape": [1152], "dtype": "float32"}, {"name": "Const_128", "shape": [192, 1152, 1, 1], "dtype": "float32"}, {"name": "Const_129", "shape": [192], "dtype": "float32"}, {"name": "Const_130", "shape": [1152, 192, 1, 1], "dtype": "float32"}, {"name": "Const_131", "shape": [1152], "dtype": "float32"}, {"name": "Const_132", "shape": [1152, 1, 5, 5], "dtype": "float32"}, {"name": "Const_133", "shape": [1152], "dtype": "float32"}, {"name": "Const_134", "shape": [48, 1152, 1, 1], "dtype": "float32"}, {"name": "Const_135", "shape": [48], "dtype": "float32"}, {"name": "Const_136", "shape": [1152, 48, 1, 1], "dtype": "float32"}, {"name": "Const_137", "shape": [1152], "dtype": "float32"}, {"name": "Const_138", "shape": [192, 1152, 1, 1], "dtype": "float32"}, {"name": "Const_139", "shape": [192], "dtype": "float32"}, {"name": "Const_140", "shape": [1152, 192, 1, 1], "dtype": "float32"}, {"name": "Const_141", "shape": [1152], "dtype": "float32"}, {"name": "Const_142", "shape": [1152, 1, 5, 5], "dtype": "float32"}, {"name": "Const_143", "shape": [1152], "dtype": "float32"}, {"name": "Const_144", "shape": [48, 1152, 1, 1], "dtype": "float32"}, {"name": "Const_145", "shape": [48], "dtype": "float32"}, {"name": "Const_146", "shape": [1152, 48, 1, 1], "dtype": "float32"}, {"name": "Const_147", "shape": [1152], "dtype": "float32"}, {"name": "Const_148", "shape": [192, 1152, 1, 1], "dtype": "float32"}, {"name": "Const_149", "shape": [192], "dtype": "float32"}, {"name": "Const_150", "shape": [1152, 192, 1, 1], "dtype": "float32"}, {"name": "Const_151", "shape": [1152], "dtype": "float32"}, {"name": "Const_152", "shape": [1152, 1, 3, 3], "dtype": "float32"}, {"name": "Const_153", "shape": [1152], "dtype": "float32"}, {"name": "Const_154", "shape": [48, 1152, 1, 1], "dtype": "float32"}, {"name": "Const_155", "shape": [48], "dtype": "float32"}, {"name": "Const_156", "shape": [1152, 48, 1, 1], "dtype": "float32"}, {"name": "Const_157", "shape": [1152], "dtype": "float32"}, {"name": "Const_158", "shape": [320, 1152, 1, 1], "dtype": "float32"}, {"name": "Const_159", "shape": [320], "dtype": "float32"}, {"name": "Const_160", "shape": [1280, 320, 1, 1], "dtype": "float32"}, {"name": "Const_161", "shape": [1280], "dtype": "float32"}, {"name": "Const_162", "shape": [400, 1280], "dtype": "float32"}, {"name": "Const_163", "shape": [400], "dtype": "float32"}, {"name": "__inference___call___1927/mul_1/x", "shape": [], "dtype": "float32"}, {"name": "__inference___call___1927/ConstantFolding/split_76-folded-1", "shape": [2], "dtype": "int32"}, {"name": "__inference___call___1927/transpose_232/perm", "shape": [4], "dtype": "int32"}, {"name": "__inference___call___1927/transpose_231/perm", "shape": [4], "dtype": "int32"}, {"name": "__inference___call___1927/transpose_233/perm", "shape": [4], "dtype": "int32"}, {"name": "__inference___call___1927/transpose_235/perm", "shape": [4], "dtype": "int32"}, {"name": "__inference___call___1927/transpose_234/perm", "shape": [4], "dtype": "int32"}, {"name": "__inference___call___1927/transpose_236/perm", "shape": [4], "dtype": "int32"}, {"name": "__inference___call___1927/ConstantFolding/split_71-folded-1", "shape": [2], "dtype": "int32"}, {"name": "__inference___call___1927/transpose_217/perm", "shape": [4], "dtype": "int32"}, {"name": "__inference___call___1927/transpose_216/perm", "shape": [4], "dtype": "int32"}, {"name": "__inference___call___1927/transpose_218/perm", "shape": [4], "dtype": "int32"}, {"name": "__inference___call___1927/transpose_220/perm", "shape": [4], "dtype": "int32"}, {"name": "__inference___call___1927/transpose_219/perm", "shape": [4], "dtype": "int32"}, {"name": "__inference___call___1927/transpose_221/perm", "shape": [4], "dtype": "int32"}, {"name": "__inference___call___1927/transpose_211/perm", "shape": [4], "dtype": "int32"}, {"name": "__inference___call___1927/transpose_210/perm", "shape": [4], "dtype": "int32"}, {"name": "__inference___call___1927/transpose_212/perm", "shape": [4], "dtype": "int32"}, {"name": "__inference___call___1927/Const_15", "shape": [4, 2], "dtype": "int32"}, {"name": "__inference___call___1927/transpose_214/perm", "shape": [4], "dtype": "int32"}, {"name": "__inference___call___1927/transpose_213/perm", "shape": [4], "dtype": "int32"}, {"name": "__inference___call___1927/Reshape_14/shape", "shape": [4], "dtype": "int32"}, {"name": "__inference___call___1927/transpose_215/perm", "shape": [4], "dtype": "int32"}, {"name": "__inference___call___1927/transpose_223/perm", "shape": [4], "dtype": "int32"}, {"name": "__inference___call___1927/transpose_222/perm", "shape": [4], "dtype": "int32"}, {"name": "__inference___call___1927/transpose_224/perm", "shape": [4], "dtype": "int32"}, {"name": "__inference___call___1927/ConstantFolding/split_66-folded-1", "shape": [2], "dtype": "int32"}, {"name": "__inference___call___1927/transpose_202/perm", "shape": [4], "dtype": "int32"}, {"name": "__inference___call___1927/transpose_201/perm", "shape": [4], "dtype": "int32"}, {"name": "__inference___call___1927/transpose_203/perm", "shape": [4], "dtype": "int32"}, {"name": "__inference___call___1927/transpose_205/perm", "shape": [4], "dtype": "int32"}, {"name": "__inference___call___1927/transpose_204/perm", "shape": [4], "dtype": "int32"}, {"name": "__inference___call___1927/transpose_206/perm", "shape": [4], "dtype": "int32"}, {"name": "__inference___call___1927/transpose_196/perm", "shape": [4], "dtype": "int32"}, {"name": "__inference___call___1927/transpose_195/perm", "shape": [4], "dtype": "int32"}, {"name": "__inference___call___1927/transpose_197/perm", "shape": [4], "dtype": "int32"}, {"name": "__inference___call___1927/Const_14", "shape": [4, 2], "dtype": "int32"}, {"name": "__inference___call___1927/transpose_199/perm", "shape": [4], "dtype": "int32"}, {"name": "__inference___call___1927/transpose_198/perm", "shape": [4], "dtype": "int32"}, {"name": "__inference___call___1927/Reshape_13/shape", "shape": [4], "dtype": "int32"}, {"name": "__inference___call___1927/transpose_200/perm", "shape": [4], "dtype": "int32"}, {"name": "__inference___call___1927/transpose_208/perm", "shape": [4], "dtype": "int32"}, {"name": "__inference___call___1927/transpose_207/perm", "shape": [4], "dtype": "int32"}, {"name": "__inference___call___1927/transpose_209/perm", "shape": [4], "dtype": "int32"}, {"name": "__inference___call___1927/ConstantFolding/split_61-folded-1", "shape": [2], "dtype": "int32"}, {"name": "__inference___call___1927/transpose_187/perm", "shape": [4], "dtype": "int32"}, {"name": "__inference___call___1927/transpose_186/perm", "shape": [4], "dtype": "int32"}, {"name": "__inference___call___1927/transpose_188/perm", "shape": [4], "dtype": "int32"}, {"name": "__inference___call___1927/transpose_190/perm", "shape": [4], "dtype": "int32"}, {"name": "__inference___call___1927/transpose_189/perm", "shape": [4], "dtype": "int32"}, {"name": "__inference___call___1927/transpose_191/perm", "shape": [4], "dtype": "int32"}, {"name": "__inference___call___1927/transpose_180/perm", "shape": [4], "dtype": "int32"}, {"name": "__inference___call___1927/transpose_182/perm", "shape": [4], "dtype": "int32"}, {"name": "__inference___call___1927/Const_13", "shape": [4, 2], "dtype": "int32"}, {"name": "__inference___call___1927/transpose_184/perm", "shape": [4], "dtype": "int32"}, {"name": "__inference___call___1927/transpose_183/perm", "shape": [4], "dtype": "int32"}, {"name": "__inference___call___1927/Reshape_12/shape", "shape": [4], "dtype": "int32"}, {"name": "__inference___call___1927/transpose_185/perm", "shape": [4], "dtype": "int32"}, {"name": "__inference___call___1927/transpose_193/perm", "shape": [4], "dtype": "int32"}, {"name": "__inference___call___1927/transpose_192/perm", "shape": [4], "dtype": "int32"}, {"name": "__inference___call___1927/transpose_194/perm", "shape": [4], "dtype": "int32"}, {"name": "__inference___call___1927/ConstantFolding/split_56-folded-1", "shape": [2], "dtype": "int32"}, {"name": "__inference___call___1927/transpose_172/perm", "shape": [4], "dtype": "int32"}, {"name": "__inference___call___1927/transpose_171/perm", "shape": [4], "dtype": "int32"}, {"name": "__inference___call___1927/transpose_173/perm", "shape": [4], "dtype": "int32"}, {"name": "__inference___call___1927/transpose_175/perm", "shape": [4], "dtype": "int32"}, {"name": "__inference___call___1927/transpose_174/perm", "shape": [4], "dtype": "int32"}, {"name": "__inference___call___1927/transpose_176/perm", "shape": [4], "dtype": "int32"}, {"name": "__inference___call___1927/ConstantFolding/split_51-folded-1", "shape": [2], "dtype": "int32"}, {"name": "__inference___call___1927/transpose_157/perm", "shape": [4], "dtype": "int32"}, {"name": "__inference___call___1927/transpose_156/perm", "shape": [4], "dtype": "int32"}, {"name": "__inference___call___1927/transpose_158/perm", "shape": [4], "dtype": "int32"}, {"name": "__inference___call___1927/transpose_160/perm", "shape": [4], "dtype": "int32"}, {"name": "__inference___call___1927/transpose_159/perm", "shape": [4], "dtype": "int32"}, {"name": "__inference___call___1927/transpose_161/perm", "shape": [4], "dtype": "int32"}, {"name": "__inference___call___1927/transpose_151/perm", "shape": [4], "dtype": "int32"}, {"name": "__inference___call___1927/transpose_150/perm", "shape": [4], "dtype": "int32"}, {"name": "__inference___call___1927/transpose_152/perm", "shape": [4], "dtype": "int32"}, {"name": "__inference___call___1927/Const_11", "shape": [4, 2], "dtype": "int32"}, {"name": "__inference___call___1927/transpose_154/perm", "shape": [4], "dtype": "int32"}, {"name": "__inference___call___1927/transpose_153/perm", "shape": [4], "dtype": "int32"}, {"name": "__inference___call___1927/Reshape_10/shape", "shape": [4], "dtype": "int32"}, {"name": "__inference___call___1927/transpose_155/perm", "shape": [4], "dtype": "int32"}, {"name": "__inference___call___1927/transpose_163/perm", "shape": [4], "dtype": "int32"}, {"name": "__inference___call___1927/transpose_162/perm", "shape": [4], "dtype": "int32"}, {"name": "__inference___call___1927/transpose_164/perm", "shape": [4], "dtype": "int32"}, {"name": "__inference___call___1927/ConstantFolding/split_46-folded-1", "shape": [2], "dtype": "int32"}, {"name": "__inference___call___1927/transpose_142/perm", "shape": [4], "dtype": "int32"}, {"name": "__inference___call___1927/transpose_141/perm", "shape": [4], "dtype": "int32"}, {"name": "__inference___call___1927/transpose_143/perm", "shape": [4], "dtype": "int32"}, {"name": "__inference___call___1927/transpose_145/perm", "shape": [4], "dtype": "int32"}, {"name": "__inference___call___1927/transpose_144/perm", "shape": [4], "dtype": "int32"}, {"name": "__inference___call___1927/transpose_146/perm", "shape": [4], "dtype": "int32"}, {"name": "__inference___call___1927/transpose_135/perm", "shape": [4], "dtype": "int32"}, {"name": "__inference___call___1927/transpose_137/perm", "shape": [4], "dtype": "int32"}, {"name": "__inference___call___1927/Const_10", "shape": [4, 2], "dtype": "int32"}, {"name": "__inference___call___1927/transpose_139/perm", "shape": [4], "dtype": "int32"}, {"name": "__inference___call___1927/transpose_138/perm", "shape": [4], "dtype": "int32"}, {"name": "__inference___call___1927/Reshape_9/shape", "shape": [4], "dtype": "int32"}, {"name": "__inference___call___1927/transpose_140/perm", "shape": [4], "dtype": "int32"}, {"name": "__inference___call___1927/transpose_148/perm", "shape": [4], "dtype": "int32"}, {"name": "__inference___call___1927/transpose_147/perm", "shape": [4], "dtype": "int32"}, {"name": "__inference___call___1927/transpose_149/perm", "shape": [4], "dtype": "int32"}, {"name": "__inference___call___1927/ConstantFolding/split_41-folded-1", "shape": [2], "dtype": "int32"}, {"name": "__inference___call___1927/transpose_127/perm", "shape": [4], "dtype": "int32"}, {"name": "__inference___call___1927/transpose_126/perm", "shape": [4], "dtype": "int32"}, {"name": "__inference___call___1927/transpose_128/perm", "shape": [4], "dtype": "int32"}, {"name": "__inference___call___1927/transpose_130/perm", "shape": [4], "dtype": "int32"}, {"name": "__inference___call___1927/transpose_129/perm", "shape": [4], "dtype": "int32"}, {"name": "__inference___call___1927/transpose_131/perm", "shape": [4], "dtype": "int32"}, {"name": "__inference___call___1927/ConstantFolding/split_36-folded-1", "shape": [2], "dtype": "int32"}, {"name": "__inference___call___1927/transpose_112/perm", "shape": [4], "dtype": "int32"}, {"name": "__inference___call___1927/transpose_111/perm", "shape": [4], "dtype": "int32"}, {"name": "__inference___call___1927/transpose_113/perm", "shape": [4], "dtype": "int32"}, {"name": "__inference___call___1927/transpose_115/perm", "shape": [4], "dtype": "int32"}, {"name": "__inference___call___1927/transpose_114/perm", "shape": [4], "dtype": "int32"}, {"name": "__inference___call___1927/transpose_116/perm", "shape": [4], "dtype": "int32"}, {"name": "__inference___call___1927/transpose_106/perm", "shape": [4], "dtype": "int32"}, {"name": "__inference___call___1927/transpose_105/perm", "shape": [4], "dtype": "int32"}, {"name": "__inference___call___1927/transpose_107/perm", "shape": [4], "dtype": "int32"}, {"name": "__inference___call___1927/Const_8", "shape": [4, 2], "dtype": "int32"}, {"name": "__inference___call___1927/transpose_109/perm", "shape": [4], "dtype": "int32"}, {"name": "__inference___call___1927/transpose_108/perm", "shape": [4], "dtype": "int32"}, {"name": "__inference___call___1927/Reshape_7/shape", "shape": [4], "dtype": "int32"}, {"name": "__inference___call___1927/transpose_110/perm", "shape": [4], "dtype": "int32"}, {"name": "__inference___call___1927/transpose_118/perm", "shape": [4], "dtype": "int32"}, {"name": "__inference___call___1927/transpose_117/perm", "shape": [4], "dtype": "int32"}, {"name": "__inference___call___1927/transpose_119/perm", "shape": [4], "dtype": "int32"}, {"name": "__inference___call___1927/ConstantFolding/split_31-folded-1", "shape": [2], "dtype": "int32"}, {"name": "__inference___call___1927/transpose_97/perm", "shape": [4], "dtype": "int32"}, {"name": "__inference___call___1927/transpose_96/perm", "shape": [4], "dtype": "int32"}, {"name": "__inference___call___1927/transpose_98/perm", "shape": [4], "dtype": "int32"}, {"name": "__inference___call___1927/transpose_100/perm", "shape": [4], "dtype": "int32"}, {"name": "__inference___call___1927/transpose_99/perm", "shape": [4], "dtype": "int32"}, {"name": "__inference___call___1927/transpose_101/perm", "shape": [4], "dtype": "int32"}, {"name": "__inference___call___1927/transpose_90/perm", "shape": [4], "dtype": "int32"}, {"name": "__inference___call___1927/transpose_92/perm", "shape": [4], "dtype": "int32"}, {"name": "__inference___call___1927/Const_7", "shape": [4, 2], "dtype": "int32"}, {"name": "__inference___call___1927/transpose_94/perm", "shape": [4], "dtype": "int32"}, {"name": "__inference___call___1927/transpose_93/perm", "shape": [4], "dtype": "int32"}, {"name": "__inference___call___1927/Reshape_6/shape", "shape": [4], "dtype": "int32"}, {"name": "__inference___call___1927/transpose_95/perm", "shape": [4], "dtype": "int32"}, {"name": "__inference___call___1927/transpose_103/perm", "shape": [4], "dtype": "int32"}, {"name": "__inference___call___1927/transpose_102/perm", "shape": [4], "dtype": "int32"}, {"name": "__inference___call___1927/transpose_104/perm", "shape": [4], "dtype": "int32"}, {"name": "__inference___call___1927/ConstantFolding/split_26-folded-1", "shape": [2], "dtype": "int32"}, {"name": "__inference___call___1927/transpose_82/perm", "shape": [4], "dtype": "int32"}, {"name": "__inference___call___1927/transpose_81/perm", "shape": [4], "dtype": "int32"}, {"name": "__inference___call___1927/transpose_83/perm", "shape": [4], "dtype": "int32"}, {"name": "__inference___call___1927/transpose_85/perm", "shape": [4], "dtype": "int32"}, {"name": "__inference___call___1927/transpose_84/perm", "shape": [4], "dtype": "int32"}, {"name": "__inference___call___1927/transpose_86/perm", "shape": [4], "dtype": "int32"}, {"name": "__inference___call___1927/ConstantFolding/split_21-folded-1", "shape": [2], "dtype": "int32"}, {"name": "__inference___call___1927/transpose_67/perm", "shape": [4], "dtype": "int32"}, {"name": "__inference___call___1927/transpose_66/perm", "shape": [4], "dtype": "int32"}, {"name": "__inference___call___1927/transpose_68/perm", "shape": [4], "dtype": "int32"}, {"name": "__inference___call___1927/transpose_70/perm", "shape": [4], "dtype": "int32"}, {"name": "__inference___call___1927/transpose_69/perm", "shape": [4], "dtype": "int32"}, {"name": "__inference___call___1927/transpose_71/perm", "shape": [4], "dtype": "int32"}, {"name": "__inference___call___1927/transpose_60/perm", "shape": [4], "dtype": "int32"}, {"name": "__inference___call___1927/transpose_62/perm", "shape": [4], "dtype": "int32"}, {"name": "__inference___call___1927/Const_5", "shape": [4, 2], "dtype": "int32"}, {"name": "__inference___call___1927/transpose_64/perm", "shape": [4], "dtype": "int32"}, {"name": "__inference___call___1927/transpose_63/perm", "shape": [4], "dtype": "int32"}, {"name": "__inference___call___1927/Reshape_4/shape", "shape": [4], "dtype": "int32"}, {"name": "__inference___call___1927/transpose_65/perm", "shape": [4], "dtype": "int32"}, {"name": "__inference___call___1927/transpose_73/perm", "shape": [4], "dtype": "int32"}, {"name": "__inference___call___1927/transpose_72/perm", "shape": [4], "dtype": "int32"}, {"name": "__inference___call___1927/transpose_74/perm", "shape": [4], "dtype": "int32"}, {"name": "__inference___call___1927/ConstantFolding/split_16-folded-1", "shape": [2], "dtype": "int32"}, {"name": "__inference___call___1927/transpose_52/perm", "shape": [4], "dtype": "int32"}, {"name": "__inference___call___1927/transpose_51/perm", "shape": [4], "dtype": "int32"}, {"name": "__inference___call___1927/transpose_53/perm", "shape": [4], "dtype": "int32"}, {"name": "__inference___call___1927/transpose_55/perm", "shape": [4], "dtype": "int32"}, {"name": "__inference___call___1927/transpose_54/perm", "shape": [4], "dtype": "int32"}, {"name": "__inference___call___1927/transpose_56/perm", "shape": [4], "dtype": "int32"}, {"name": "__inference___call___1927/ConstantFolding/split_11-folded-1", "shape": [2], "dtype": "int32"}, {"name": "__inference___call___1927/transpose_37/perm", "shape": [4], "dtype": "int32"}, {"name": "__inference___call___1927/transpose_36/perm", "shape": [4], "dtype": "int32"}, {"name": "__inference___call___1927/transpose_38/perm", "shape": [4], "dtype": "int32"}, {"name": "__inference___call___1927/transpose_40/perm", "shape": [4], "dtype": "int32"}, {"name": "__inference___call___1927/transpose_39/perm", "shape": [4], "dtype": "int32"}, {"name": "__inference___call___1927/transpose_41/perm", "shape": [4], "dtype": "int32"}, {"name": "__inference___call___1927/transpose_30/perm", "shape": [4], "dtype": "int32"}, {"name": "__inference___call___1927/transpose_32/perm", "shape": [4], "dtype": "int32"}, {"name": "__inference___call___1927/Const_3", "shape": [4, 2], "dtype": "int32"}, {"name": "__inference___call___1927/transpose_34/perm", "shape": [4], "dtype": "int32"}, {"name": "__inference___call___1927/transpose_33/perm", "shape": [4], "dtype": "int32"}, {"name": "__inference___call___1927/Reshape_2/shape", "shape": [4], "dtype": "int32"}, {"name": "__inference___call___1927/transpose_35/perm", "shape": [4], "dtype": "int32"}, {"name": "__inference___call___1927/transpose_43/perm", "shape": [4], "dtype": "int32"}, {"name": "__inference___call___1927/transpose_42/perm", "shape": [4], "dtype": "int32"}, {"name": "__inference___call___1927/transpose_44/perm", "shape": [4], "dtype": "int32"}, {"name": "__inference___call___1927/ConstantFolding/split_6-folded-1", "shape": [2], "dtype": "int32"}, {"name": "__inference___call___1927/transpose_22/perm", "shape": [4], "dtype": "int32"}, {"name": "__inference___call___1927/transpose_21/perm", "shape": [4], "dtype": "int32"}, {"name": "__inference___call___1927/transpose_23/perm", "shape": [4], "dtype": "int32"}, {"name": "__inference___call___1927/transpose_25/perm", "shape": [4], "dtype": "int32"}, {"name": "__inference___call___1927/transpose_24/perm", "shape": [4], "dtype": "int32"}, {"name": "__inference___call___1927/transpose_26/perm", "shape": [4], "dtype": "int32"}, {"name": "__inference___call___1927/ConstantFolding/split_1-folded-1", "shape": [2], "dtype": "int32"}, {"name": "__inference___call___1927/transpose_7/perm", "shape": [4], "dtype": "int32"}, {"name": "__inference___call___1927/transpose_6/perm", "shape": [4], "dtype": "int32"}, {"name": "__inference___call___1927/transpose_8/perm", "shape": [4], "dtype": "int32"}, {"name": "__inference___call___1927/transpose_10/perm", "shape": [4], "dtype": "int32"}, {"name": "__inference___call___1927/transpose_9/perm", "shape": [4], "dtype": "int32"}, {"name": "__inference___call___1927/transpose_11/perm", "shape": [4], "dtype": "int32"}, {"name": "__inference___call___1927/onnx_tf_prefix_Unsqueeze_0/dim", "shape": [], "dtype": "int32"}, {"name": "__inference___call___1927/Const", "shape": [4, 2], "dtype": "int32"}, {"name": "__inference___call___1927/transpose_1/perm", "shape": [4], "dtype": "int32"}, {"name": "__inference___call___1927/transpose/perm", "shape": [4], "dtype": "int32"}, {"name": "__inference___call___1927/transpose_2/perm", "shape": [4], "dtype": "int32"}, {"name": "__inference___call___1927/Const_1", "shape": [4, 2], "dtype": "int32"}, {"name": "__inference___call___1927/transpose_4/perm", "shape": [4], "dtype": "int32"}, {"name": "__inference___call___1927/transpose_3/perm", "shape": [4], "dtype": "int32"}, {"name": "__inference___call___1927/Reshape/shape", "shape": [4], "dtype": "int32"}, {"name": "__inference___call___1927/transpose_5/perm", "shape": [4], "dtype": "int32"}, {"name": "__inference___call___1927/transpose_13/perm", "shape": [4], "dtype": "int32"}, {"name": "__inference___call___1927/transpose_12/perm", "shape": [4], "dtype": "int32"}, {"name": "__inference___call___1927/transpose_15/perm", "shape": [4], "dtype": "int32"}, {"name": "__inference___call___1927/transpose_17/perm", "shape": [4], "dtype": "int32"}, {"name": "__inference___call___1927/Const_2", "shape": [4, 2], "dtype": "int32"}, {"name": "__inference___call___1927/transpose_19/perm", "shape": [4], "dtype": "int32"}, {"name": "__inference___call___1927/transpose_18/perm", "shape": [4], "dtype": "int32"}, {"name": "__inference___call___1927/Reshape_1/shape", "shape": [4], "dtype": "int32"}, {"name": "__inference___call___1927/transpose_20/perm", "shape": [4], "dtype": "int32"}, {"name": "__inference___call___1927/transpose_28/perm", "shape": [4], "dtype": "int32"}, {"name": "__inference___call___1927/transpose_27/perm", "shape": [4], "dtype": "int32"}, {"name": "__inference___call___1927/transpose_29/perm", "shape": [4], "dtype": "int32"}, {"name": "__inference___call___1927/transpose_46/perm", "shape": [4], "dtype": "int32"}, {"name": "__inference___call___1927/transpose_45/perm", "shape": [4], "dtype": "int32"}, {"name": "__inference___call___1927/transpose_47/perm", "shape": [4], "dtype": "int32"}, {"name": "__inference___call___1927/Const_4", "shape": [4, 2], "dtype": "int32"}, {"name": "__inference___call___1927/transpose_49/perm", "shape": [4], "dtype": "int32"}, {"name": "__inference___call___1927/transpose_48/perm", "shape": [4], "dtype": "int32"}, {"name": "__inference___call___1927/Reshape_3/shape", "shape": [4], "dtype": "int32"}, {"name": "__inference___call___1927/transpose_50/perm", "shape": [4], "dtype": "int32"}, {"name": "__inference___call___1927/transpose_58/perm", "shape": [4], "dtype": "int32"}, {"name": "__inference___call___1927/transpose_57/perm", "shape": [4], "dtype": "int32"}, {"name": "__inference___call___1927/transpose_59/perm", "shape": [4], "dtype": "int32"}, {"name": "__inference___call___1927/transpose_76/perm", "shape": [4], "dtype": "int32"}, {"name": "__inference___call___1927/transpose_75/perm", "shape": [4], "dtype": "int32"}, {"name": "__inference___call___1927/transpose_77/perm", "shape": [4], "dtype": "int32"}, {"name": "__inference___call___1927/Const_6", "shape": [4, 2], "dtype": "int32"}, {"name": "__inference___call___1927/transpose_79/perm", "shape": [4], "dtype": "int32"}, {"name": "__inference___call___1927/transpose_78/perm", "shape": [4], "dtype": "int32"}, {"name": "__inference___call___1927/Reshape_5/shape", "shape": [4], "dtype": "int32"}, {"name": "__inference___call___1927/transpose_80/perm", "shape": [4], "dtype": "int32"}, {"name": "__inference___call___1927/transpose_88/perm", "shape": [4], "dtype": "int32"}, {"name": "__inference___call___1927/transpose_87/perm", "shape": [4], "dtype": "int32"}, {"name": "__inference___call___1927/transpose_89/perm", "shape": [4], "dtype": "int32"}, {"name": "__inference___call___1927/transpose_121/perm", "shape": [4], "dtype": "int32"}, {"name": "__inference___call___1927/transpose_120/perm", "shape": [4], "dtype": "int32"}, {"name": "__inference___call___1927/transpose_122/perm", "shape": [4], "dtype": "int32"}, {"name": "__inference___call___1927/Const_9", "shape": [4, 2], "dtype": "int32"}, {"name": "__inference___call___1927/transpose_124/perm", "shape": [4], "dtype": "int32"}, {"name": "__inference___call___1927/transpose_123/perm", "shape": [4], "dtype": "int32"}, {"name": "__inference___call___1927/Reshape_8/shape", "shape": [4], "dtype": "int32"}, {"name": "__inference___call___1927/transpose_125/perm", "shape": [4], "dtype": "int32"}, {"name": "__inference___call___1927/transpose_133/perm", "shape": [4], "dtype": "int32"}, {"name": "__inference___call___1927/transpose_132/perm", "shape": [4], "dtype": "int32"}, {"name": "__inference___call___1927/transpose_134/perm", "shape": [4], "dtype": "int32"}, {"name": "__inference___call___1927/transpose_166/perm", "shape": [4], "dtype": "int32"}, {"name": "__inference___call___1927/transpose_165/perm", "shape": [4], "dtype": "int32"}, {"name": "__inference___call___1927/transpose_167/perm", "shape": [4], "dtype": "int32"}, {"name": "__inference___call___1927/Const_12", "shape": [4, 2], "dtype": "int32"}, {"name": "__inference___call___1927/transpose_169/perm", "shape": [4], "dtype": "int32"}, {"name": "__inference___call___1927/transpose_168/perm", "shape": [4], "dtype": "int32"}, {"name": "__inference___call___1927/Reshape_11/shape", "shape": [4], "dtype": "int32"}, {"name": "__inference___call___1927/transpose_170/perm", "shape": [4], "dtype": "int32"}, {"name": "__inference___call___1927/transpose_178/perm", "shape": [4], "dtype": "int32"}, {"name": "__inference___call___1927/transpose_177/perm", "shape": [4], "dtype": "int32"}, {"name": "__inference___call___1927/transpose_179/perm", "shape": [4], "dtype": "int32"}, {"name": "__inference___call___1927/transpose_226/perm", "shape": [4], "dtype": "int32"}, {"name": "__inference___call___1927/transpose_225/perm", "shape": [4], "dtype": "int32"}, {"name": "__inference___call___1927/transpose_227/perm", "shape": [4], "dtype": "int32"}, {"name": "__inference___call___1927/Const_16", "shape": [4, 2], "dtype": "int32"}, {"name": "__inference___call___1927/transpose_229/perm", "shape": [4], "dtype": "int32"}, {"name": "__inference___call___1927/transpose_228/perm", "shape": [4], "dtype": "int32"}, {"name": "__inference___call___1927/Reshape_15/shape", "shape": [4], "dtype": "int32"}, {"name": "__inference___call___1927/transpose_230/perm", "shape": [4], "dtype": "int32"}, {"name": "__inference___call___1927/transpose_238/perm", "shape": [4], "dtype": "int32"}, {"name": "__inference___call___1927/transpose_237/perm", "shape": [4], "dtype": "int32"}, {"name": "__inference___call___1927/transpose_240/perm", "shape": [4], "dtype": "int32"}, {"name": "__inference___call___1927/transpose_242/perm", "shape": [4], "dtype": "int32"}, {"name": "__inference___call___1927/ConstantFolding/split_81-folded-1", "shape": [2], "dtype": "int32"}, {"name": "__inference___call___1927/Reshape_16/shape", "shape": [2], "dtype": "int32"}]}]}